Project/Assets/Trainers/results/FlappyAI/FlappyAI/FlappyAI-499988.pt (torch, 525440 bytes, 33 tensors)

network_body._body_endoder.seq_layers.0.weight f4 [128, 34]
00000000: 81b6 883e 8397 5fbd 10f1 92bc 8e0c 0f3d
00000010: 3f64 ecbd 2482 02bd c4aa 78bc c0be 49bd
00000020: a291 0e3c e767 07bc c443 183f e241 b3bd
00000030: 8e97 e9be 2e93 7a3e a913 79be 3835 9dbd
00000040: 1515 44be e79d 143d b879 14be 5b11 49be
00000050: bf3b 3a3e 2566 473e 6ec3 d93c 13b0 cc3d
00000060: fddf 863e 7229 8f3d 062e ed3d 168d b63d
00000070: 68dd adbe 5da3 cd3e 942d ab3e 6c44 b43e
00000080: a3e2 8fbc a1d4 e8bd 08bc 993e 6913 d0bd
00000090: efd0 71be b1e2 1cbe 0d16 0a3d 677e 103d
000000a0: 321e d93e 9c03 843e 7283 623d e47a 5d3d
000000b0: e427 8ebe eada 7a3e f6b3 37bd 4f1e e2be
000000c0: d574 583e a01d 2e3c 41a2 e63d f8ad e4be
000000d0: 0c97 4f3e 5b94 8b3e f825 d03c e478 e9be
000000e0: 74c6 023e 2319 873d ccc7 d33c 54cb ae3d
000000f0: 0551 9abc 4ece 9f3e be35 74bd 001d f1bd
00000100: 4710 883e 3e77 953e b27e 70bd a65b b43d
00000110: 3bc6 56be 32be 883d 3d14 cd3a 6337 453d
00000120: 4790 71be 9871 5b3e e13b b93b 74e7 103d
00000130: 6417 2f3e 5c7c 5ebd ea5a c23d 1e10 6ebe
00000140: 540b 59bc 8d37 923e 8fea 40be fad7 c43b
00000150: 5a22 563e cec0 663d bae0 6db9 ed18 f0be
00000160: 8c6a cebd f6ec 513e 31c6 97be 85d8 f0be
00000170: e7a9 953b a9bd 0b3e ce79 02be ed3f dfbd
00000180: 1968 83be fb96 513d 3190 0d3e 0c53 1dbe
00000190: 193e 023e 3ea1 4dbe 64e6 813d 9a1f 033e
000001a0: 0223 76bd a9c2 79be fbc8 843d 78c8 47be
000001b0: f0d0 803d b2f7 cfbd 5f1d 223e 357d ef3d
000001c0: 95df 8cbd 6ca2 03be 6711 1cbe 2ec5 bebe
000001d0: 9345 463e f99b dbbd a14f 50bd 1814 703e
000001e0: c1cf 4c3d 9273 20be f45a 5d3c c786 27be
000001f0: 9249 bbbd d152 a4be 3b21 703e c099 98bb
00000200: 9314 6b3d b3d6 26be aca3 26be ab33 97ba
00000210: f1f6 58bd 20e2 233e 8651 393e bfc1 2e3d
00000220: ce05 a2bd 9370 2c3e 0cd0 94be daaa 5ebd
00000230: 63c8 18be b5bf 62bd b88a 35be efe1 cc3c
00000240: a1d8 44bc 1f7b ad3d 3415 abbc 3e7a 0bbe
00000250: e8c7 0bbe 9704 f93d c6bf 2b3e b446 df3d
00000260: 6eff c0bd 51a7 4c3d c4ae 4ebe 9bc3 87be
00000270: a2f2 a9be f730 583d f13e 5d3e 3bd6 40bd
00000280: 4f86 8c3c f539 28be dc5e 913d b787 45bc
00000290: 57d7 75bc 8822 1c3e 618f b1bc 011b d33d
000002a0: 92dd 2cbe 56aa bcbd eb48 0b3e c3f2 bcbe
000002b0: 1388 11be d4c6 f13c e65a 0bbc cdbc 6f3d
000002c0: b8ef 4abe 2993 60be 8795 533d db1b 83be
000002d0: f94b cebd a807 02bd d1ea 38be 060e 01be
000002e0: c5f9 553e 230a ff3d 77a6 a93d 4c6f 8abd
000002f0: d165 cfbd 692d ab3d 7812 f3bc 6495 a8bc
00000300: 9e67 a1bd e935 863c 6821 703d 580c 85be
00000310: d9e5 d5bc 3f2f 8abd e873 b2bd 9bad 903b
00000320: c59b 18be 7854 0e3e b6b6 e9bd 943a b33d
00000330: ee54 f03d 0b07 bcbc e8d3 3b3d af91 9cbd
00000340: 7aab 1f3d b190 11bc 085e 973e 6ba8 d3be
00000350: d07f 82bd a348 eabe cfa9 8fbe 86fa 1dbd
00000360: 7665 d7be 4f07 fa3d 3f5b 8e3e 9622 853e
00000370: de5e 613e 2d51 a5be adba a1be fd15 b03e
00000380: d40d 273e de2c 8abe 0e9c 02be 82f5 afbd
00000390: cb58 06bf 2169 be3d fdfe 803e 5337 f2bd
000003a0: bd7d 77bd f31a 983e 9ef3 323e 9b6d 7dbd
000003b0: ef1e fabd ec9f 813e 4766 153e 274d a93e
000003c0: e8a2 02be c7ca d8bd 10a4 a73e 13ea bf3e
000003d0: 9d99 293d e86e 93bc 1941 273e 91ee a63e
000003e0: ca1a 00bc 1549 cbbd 75f5 e43e 0a8b debd
000003f0: a342 20be f1c8 fd3c 55f2 f9bc 95f0 f83c
0.2670174 -0.054587852 -0.017937213 0.034924082 -0.11542558 -0.031862393 -0.015177432 -0.04925418
0.008701714 -0.008264518 0.594784 -0.087528005 -0.4562344 0.24470207 -0.24323906 -0.07676166
-0.19148667 0.0362834 -0.14499557 -0.19635527 0.18186854 0.19472559 0.026582446 0.09994521
0.26342764 0.06990327 0.11581044 0.08913629 -0.33957982 0.401637 0.3343321 0.35208452
-0.017564123 -0.11368681 0.3002627 -0.10159952 -0.23614858 -0.15320851 0.033712436 0.035276797
0.4240585 0.25784004 0.055301137 0.054072276 -0.2776481 0.24497572 -0.04484936 -0.4416375
0.21138318 0.01062718 0.11261416 -0.44663978 0.20272464 0.27261624 0.02540873 -0.45600045
0.12771016 0.06596591 0.025852107 0.085348755 -0.018837461 0.31212085 -0.059621565 -0.117731094
0.2657492 0.29192537 -0.058714576 0.08806543 -0.20974056 0.06676902 0.001564629 0.048148524
-0.23590194 0.21430051 0.00565289 0.03537698 0.17098767 -0.054317817 0.09489997 -0.23248336
-0.01324733 0.28558007 -0.18839477 0.0060071917 0.20911542 0.056336217 -0.00022685798 -0.46894017
-0.10078916 0.2050055 -0.29643396 -0.4704019 0.004567373 0.13646568 -0.12741777 -0.10900865
-0.25665358 0.051169377 0.13824536 -0.15363711 0.12719001 -0.2008104 0.06342772 0.12805024
-0.06009198 -0.24390663 0.064836465 -0.19510067 0.06289852 -0.10154666 0.15831517 0.11693803
-0.068785824 -0.12854928 -0.15241013 -0.3725981 0.19362478 -0.10723109 -0.05085719 0.23445165
0.050002817 -0.15669087 0.013510454 -0.16360007 -0.09144892 -0.32094434 0.23450176 -0.0046570003
0.057392668 -0.16292839 -0.16273373 -0.0011535784 -0.052969877 0.16004229 0.18097505 0.04266524
-0.079112634 0.16839819 -0.29064977 -0.054362155 -0.14920191 -0.055358607 -0.17728698 0.025010077
-0.012014539 0.08470749 -0.020884134 -0.1362085 -0.13650477 0.121590786 0.16772375 0.109021574
-0.09423719 0.049964253 -0.20183855 -0.26516423 -0.33192927 0.05278107 0.21606041 -0.047079306
0.017153887 -0.16428359 0.07098171 -0.012056283 -0.015004954 0.15247548 -0.021674814 0.10307885
-0.16881397 -0.092121765 0.13602035 -0.36903962 -0.14212064 0.029513754 -0.008505559 0.058529664
-0.19818008 -0.21931137 0.051656272 -0.2560719 -0.100730844 -0.031745583 -0.18058325 -0.12603006
0.20896061 0.12453105 0.08283704 -0.067595094 -0.10126842 0.08358271 -0.029671893 -0.020579048
-0.078810915 0.016383128 0.05862561 -0.2598598 -0.026110576 -0.06747293 -0.087135136 0.0044152266
-0.14903171 0.1389941 -0.114118025 0.08751407 0.11734949 -0.022952577 0.045856386 -0.076449744
0.038981892 -0.008884595 0.29563928 -0.4133943 -0.063720345 -0.45758542 -0.2805924 -0.038568996
-0.42069596 0.12208425 0.2780399 0.2600295 0.22008845 -0.32288495 -0.31587735 0.34391776
0.16313869 -0.26987356 -0.12754843 -0.08591749 -0.5247924 0.092973955 0.2519454 -0.118269585
-0.060422648 0.2970806 0.17475745 -0.061872106 -0.12212931 0.25317323 0.14589797 0.33066675
-0.12757456 -0.10585552 0.32742357 0.37483272 0.041406263 -0.01799722 0.16333427 0.32603887
-0.007818887 -0.09926049 0.4471852 -0.10866363 -0.1565042 0.030979605 -0.03051106 0.030388156

network_body._body_endoder.seq_layers.0.bias f4 [128]
00000000: 7cf5 763a a2e7 4d3d 9d32 bfbb 046b 243c
00000010: f5f1 cebb 889b a03c 0699 263c 9387 eaba
00000020: b294 f03b 77f5 663c 4b4e 403c 2122 803d
00000030: d02a 9d3c 9259 de3c d4f9 763c 4571 2e3c
00000040: de24 0fbc a160 e23b 2e39 a33c 58c2 9439
00000050: ea4a 8a3b 5afb afbb eede d33c 49e4 fe3c
00000060: 8108 863a d06c 8d3b 340f 2d3c 30dd a4ba
00000070: 39b9 923c 6732 563c 66a3 4e3d 786e c63c
00000080: bee2 243d 42f5 b03c 4fdc 893c 64be cc3a
00000090: 6245 453d 896b 463c 8255 853c a116 f43c
000000a0: 689b d83c 6b94 1bbc 4666 813c dd3f 083d
000000b0: 0db7 c0bb 59aa f13b fda3 3cbc 3bbd fd3b
000000c0: dae6 a33b e078 c43c cb29 22bc bdd9 743c
000000d0: d0bd a8ba 481d e53c 1723 7e3c 10bd a0bb
000000e0: 3832 613c 2c9d b23c b072 303d 875c ae3c
000000f0: 4bb2 503c 0015 833d e913 b03a d215 02bc
00000100: 4ffc bf3c e910 9d3c f25f 8a3c e07a db3c
00000110: 84cf 62bc 1208 463c 6c1d 8cbc 8e00 073d
00000120: 79b5 ae3c 2613 513c 65ae c5bb c59d 103c
00000130: c0e0 8e3c 559f e138 b2ff 0f3c 143d a63c
00000140: e536 133d 4655 c13c d7db b1bc f545 123d
00000150: bca4 95bc f69c 3a3d 2231 1ebb 498d d43b
00000160: 6b52 943a 6e49 413c e49a a63d b8c7 45bc
00000170: 86be 793c 3be4 c53c e7bc 433b 3ae6 453b
00000180: a3cb ba3c 614a db3c b0aa 83bc a398 db3c
00000190: 0bd0 833c 5822 9e3a c7ed 7c3c 8a1e 043c
000001a0: f675 c03c 1b0a 9a3d c7fc e93c 7353 243d
000001b0: 34bc 873b 0690 943c 3418 cd3b a82d 143c
000001c0: 94db a239 773b 1abb 4799 6c3d 89e8 aa3c
000001d0: cf9f 79ba 9a1b 18bc 7979 cc3c 5231 e93b
000001e0: 046a 663c e4e6 4e3d 6799 2b3a 03bd 233d
000001f0: a4f5 463c 4d8f 923c 9d7d 2f3c d555 203c
0.00094207353 0.05026973 -0.005834891 0.01003528 -0.0063154646 0.019605413 0.01016832 -0.0017893187
0.0073419446 0.014096609 0.0117374165 0.062565096 0.019185454 0.02714232 0.015074212 0.010647123
-0.008736817 0.0069084917 0.019924726 0.00028373557 0.0042203562 -0.0053705396 0.025863137 0.031114714
0.0010225923 0.00431595 0.010562707 -0.0012578126 0.017910587 0.01307354 0.050448798 0.024222597
0.0402553 0.021601323 0.016828684 0.0015620706 0.04816187 0.012110599 0.016276125 0.029795947
0.026441291 -0.009495835 0.015795838 0.03326403 -0.0058811964 0.0073750434 -0.011513707 0.0077435053
0.005001885 0.023983419 -0.0098976595 0.014944491 -0.0012873951 0.027968064 0.015511296 -0.0049053505
0.013744883 0.021803461 0.043078125 0.021284355 0.012737821 0.0640049 0.0013433668 -0.007939773
0.02343574 0.019173102 0.016891453 0.02679199 -0.013843421 0.012086885 -0.017103873 0.032959513
0.021326767 0.012760913 -0.0060327523 0.008826678 0.017441154 0.00010758514 0.00878899 0.020292796
0.035941023 0.023600232 -0.021711273 0.035711247 -0.018267028 0.045559846 -0.0024138172 0.006486569
0.0011316066 0.011797292 0.08135012 -0.012071542 0.015243178 0.02415668 0.0029867233 0.003019704
0.02280218 0.026768865 -0.016072601 0.026806181 0.016090414 0.0012064679 0.01543755 0.008063922
0.023493748 0.07521459 0.028562916 0.040118646 0.0041423086 0.018135082 0.0062589888 0.009044088
0.00031062646 -0.002353398 0.057763364 0.020862835 -0.00095224095 -0.0092839245 0.024960266 0.007116475
0.014063362 0.050513163 0.0006545991 0.039975177 0.012143526 0.017890597 0.010711101 0.009786089

network_body._body_endoder.seq_layers.2.weight f4 [128, 128]
00000000: e0ec 033e 510e d8bd 5bc2 ccbd be5f 1cbd
00000010: 6bd7 3ebd 70d8 963d 9dd0 a6bd 2d94 5f3d
00000020: 5446 ad3c 84fe f83c 4848 343d 3a5f 113a
00000030: ed01 0d3e 5aba 3dbd 4124 3ebd a5df 893d
00000040: d621 1abe c3ac 8abd 1334 21bd 350f 293e
00000050: c68e 8d3d c990 84be 362c a73d 58fd cdbb
00000060: 613f c03d bec7 2e3d 8e9a 0abc 57cc 093d
00000070: 4456 90bb 0830 a33d 4a1f 1c3e d7ea ce3c
00000080: 83f7 fcbb 532c b73d fefc fe3d b3c1 2fbd
00000090: 20f3 12be 5dd3 35bd f5b4 99bd b08f 703c
000000a0: 6c86 963d 5787 2fbe f171 8ebd 8037 4ebd
000000b0: 73bb a9bd f429 94bc 93df cd3d ab83 93bc
000000c0: afeb f6bb dfdd f83d 97e4 1dbc 7165 0b3e
000000d0: 2cd9 7ebd f7f4 913d e630 603d addd 303d
000000e0: 8ea1 13bd 73b4 5bbd 6f5a 38be 806e b93e
000000f0: 6523 74bd 6e69 903d 164e 7b3b ffb7 13be
00000100: c7fd ec3d 3251 fdbd 0cb7 293d 9f9f aebb
00000110: 8a0e f7bd d148 22bd 9ed4 3cbe 2ee8 813d
00000120: 02d6 53bd e118 d23d cc61 543e 4df6 b03b
00000130: 8b55 8ebe a35f c8bd 7c3b 023e 248f 013d
00000140: fbac 59bd a3a8 37be 5005 cb3d 3705 53bc
00000150: 61cf 1e3d f7bc e0bc c9a5 1c3c 43fc f33c
00000160: 033d a33d 8729 f0bb ed25 d73c d07a 11be
00000170: 7dcd b13d 1a9b 2c3d e96d 2e3e 829b 0dbe
00000180: c707 37be abd4 d43d 637c b73c 822b cbbd
00000190: 8785 513d 6585 6e3e 09b3 273d c166 8b3c
000001a0: b9f4 8d3a 177f 3bbe d32a 0a3e 6603 b8bd
000001b0: 19b6 113e cac2 70bd fc7d f5bd 0bd5 153e
000001c0: 3f3a 463c bc87 ca3d 9353 34bd c737 1c3e
000001d0: 4c4b c2bd 3808 5f3d 0d89 a13d c9f9 fdbd
000001e0: f3a3 3abd e602 06be f754 913d 89e7 e6bd
000001f0: 6676 f53d db72 b53d 7085 d0bd c6be ab3d
00000200: b08e 4bbd 879f 783d e919 d63d bfbd fc3d
00000210: f39c c5bc feb0 b23d 2294 a23c 6423 8e3b
00000220: 00b2 a7bd 3ea9 943c 387d afbd 80dd a53c
00000230: 50a5 693d 69ae f2bd b50b 493d b1a4 d83d
00000240: 42f3 f03c bdc5 b6bd 8f3c 1dbe b020 32bd
00000250: 14c1 0a3d 0625 043c 5bab 10bd 8222 3b3d
00000260: 9ccb 893d 7bb0 d8bd a567 dcbd 036f 71bd
00000270: 9587 dcbd 7118 3abe 323c 1e3e 82e4 22be
00000280: fd75 bebb 3576 ccbd 17af 283c 6914 b73d
00000290: c633 203d 5d61 74be 2dc6 443e c68b 4fbe
000002a0: 6154 263d d17d b23c 0807 15bd 923c 7cbb
000002b0: 9b2c 3f3d 765d 0f3c 5c20 c73d ad2d d6bd
000002c0: cc5d 3d3c 86ab 4abe dae1 ae39 0e51 58be
000002d0: e12e a6bd 64ad 403d 8fc8 d8bd fb29 513d
000002e0: 5d0a d4bd 92e9 f9bc 3173 d4bc eb0a 00be
000002f0: ad8a 0c3d b292 c4bd e4e3 93bb 36ee b43d
00000300: 7415 153e 6461 1cbd 5b97 0c3e b53c 923d
00000310: ee7c 8c3c f2e9 e0bd f99f 8a3c 5def 5a3a
00000320: f018 893d fbb6 01bd bff5 26be f326 ce3d
00000330: afa5 fbbb 3526 81be 32b4 eb3b 0663 743d
00000340: 94a9 163e 270e 9ebd 7dd5 ecbd 603e 193d
00000350: 0143 d23d 5796 5b3d afc5 1f3e 3a1a 123d
00000360: aa1a 4cbc 74f6 c73d 143f 91bd 9757 b3bc
00000370: 9f52 da3d 5200 f13c 6cb1 02bd 326b 233e
00000380: e8ff 603d 1e0d ce3d e44c 9cbc 1917 87bd
00000390: d650 0cbe 0767 ce3c daf8 913d 8058 1a3e
000003a0: 6519 473d e26a a3bb 4e6d 36be c488 76bd
000003b0: cc1a 6bbd 7e89 87be 34b7 c8bc 99b3 693d
000003c0: 680b 32bd 3465 d53d 7d59 c6bd 4f0d bdbd
000003d0: 5f0c a7bd 491f 5fbd b0b8 e9bc dc2f d2bd
000003e0: bda4 153e 7e95 85bd 6ae9 07bd 28d9 2f3d
000003f0: 7631 743d 3b03 353d d85c a03c 5ed1 d7bd
0.1288333 -0.10549606 -0.09998008 -0.038177244 -0.046592157 0.07365501 -0.081452586 0.05458467
0.0211517 0.0303948 0.044014245 0.0005545501 0.13770266 -0.046320297 -0.046421293 0.0673211
-0.1505197 -0.06771233 -0.039356302 0.16509707 0.069119975 -0.25891712 0.081627294 -0.0062863044
0.093870886 0.042670958 -0.0084597 0.03364214 -0.004404815 0.079681456 0.15246311 0.025258465
-0.0077199354 0.08944001 0.12450598 -0.042909335 -0.14350557 -0.044391025 -0.07505218 0.014682695
0.07349858 -0.17141472 -0.06955326 -0.050345898 -0.08287706 -0.018086411 0.10052409 -0.01800712
-0.00753542 0.121516936 -0.00963702 0.13612916 -0.06221883 0.071268015 0.054734133 0.043180156
-0.036042742 -0.053638887 -0.18003248 0.36217117 -0.059604067 0.07051359 0.0038346103 -0.14425658
0.11571842 -0.123690024 0.041434333 -0.005329087 -0.1206332 -0.039620224 -0.18440482 0.06343113
-0.051717766 0.102586515 0.20740432 0.005400455 -0.2779964 -0.09783866 0.12718004 0.03163065
-0.053143483 -0.17935424 0.09913123 -0.012879661 0.03877199 -0.027433855 0.009561011 0.029783374
0.079706214 -0.007329169 0.026263202 -0.14207006 0.08681772 0.042140104 0.17034115 -0.13828853
-0.1787406 0.10392126 0.02239818 -0.09920408 0.051152732 0.23293073 0.040942226 0.01701677
0.0010830379 -0.183102 0.13492899 -0.08985023 0.14229621 -0.058779515 -0.1198692 0.1463205
0.012098848 0.098891705 -0.044025015 0.15255652 -0.09487018 0.054451197 0.078874685 -0.12401158
-0.04556651 -0.13087043 0.07096284 -0.112746306 0.11985473 0.088597976 -0.10181701 0.083859965
-0.049696624 0.060699012 0.10454161 0.12340879 -0.02412269 0.08725165 0.019846026 0.004337715
-0.08188248 0.018147107 -0.085688055 0.020247221 0.05704242 -0.11849672 0.04908343 0.105782874
0.02941287 -0.08924434 -0.15355133 -0.043488204 0.03387554 0.008065468 -0.035319667 0.045687206
0.067282885 -0.10580536 -0.10761956 -0.05894376 -0.10768048 -0.18173386 0.1545265 -0.15907481
-0.005812405 -0.09983484 0.010295651 0.0893944 0.039111875 -0.23865266 0.19216223 -0.20268163
0.040607814 0.02178851 -0.03638366 -0.003848825 0.0466734 0.00875031 0.09722969 -0.10457931
0.011558007 -0.19791993 0.0003335614 -0.2112467 -0.0811441 0.04704036 -0.105851285 0.051065426
-0.10353539 -0.030506883 -0.025933834 -0.12504165 0.03431194 -0.095982924 -0.0045132507 0.08834498
0.14558965 -0.038178816 0.13729613 0.07140485 0.017149415 -0.109821215 0.016921984 0.0008351708
0.066942096 -0.031668644 -0.16304682 0.10066023 -0.007679663 -0.25224462 0.007193112 0.05966475
0.14713126 -0.07717543 -0.11564157 0.037413 0.10266686 0.053610172 0.15602754 0.035669543
-0.012457529 0.09763804 -0.07092109 -0.021892352 0.1066029 0.029419098 -0.031907484 0.1595886
0.05493155 0.10061096 -0.019079633 -0.065962024 -0.13702711 0.025195612 0.07127543 0.15072823
0.048608202 -0.0049871067 -0.17815134 -0.060189024 -0.057398602 -0.26472086 -0.02450142 0.057056043
-0.04346791 0.104196936 -0.09685037 -0.09231054 -0.081566565 -0.054473195 -0.028530449 -0.10263035
0.14613624 -0.06522654 -0.033181585 0.042931706 0.059617482 0.044192534 0.019575521 -0.105379805

network_body._body_endoder.seq_layers.2.bias f4 [128]
00000000: 2ef0 5d3c 7758 4aba f5f8 433c aca6 0abb
00000010: 9fd2 523c 6eb5 b33b 03e9 c43c 233f 3f3c
00000020: fd68 473c 3f16 503c ff6e 34bb 5320 113d
00000030: 0dcc 0d3b eefe 2fba 4c93 eabb 15ac 973c
00000040: 15d1 463c 4fc6 323d 9753 a63b cb7e 2a3c
00000050: 2885 613c c3be a2ba 80c1 1a3c 4a16 f438
00000060: 792d 263c 8d4c f83b c4a2 a33a 6f9b c43c
00000070: 5f7d 763b 023b 3e3c 60e8 113d 1563 82bb
00000080: a64f 7a3c 13f3 8d3b 097e 683b d531 863c
00000090: 072d 1b3c ecf0 723a c206 ec3c d546 6e3c
000000a0: 12b6 183c 2ceb 633a 4c94 093d a727 af3b
000000b0: 176d 573b dc5a 983c 0f17 533c c007 d23c
000000c0: 6d2e 873b 132e 5f3c 353f 803c 2817 ee3b
000000d0: 840c ac3b ab8e d83b 8be1 bc3c 95d2 853c
000000e0: f89a 2d3c 6cd4 ff3c 6cad 7d3c 3907 5c3c
000000f0: bef1 13bc 014e 153b eb22 083c c661 1d3d
00000100: f03a 5d3c 312e 9c3c c37d 913c 8aea 953a
00000110: 6e97 833c 2944 183c 8f13 4cbb 2f1d f23c
00000120: 69ba 453c 4d6a 333d 1953 1e3c b9c6 d43b
00000130: b065 dd3c b75a 7f3c 5098 2e3c 68f1 6b3a
00000140: 2dfb 973b 15d4 613c 80be 313d d3ec 4a3c
00000150: e269 233b 9820 9d3b 092d af3c 96a9 383c
00000160: 27ab 95b8 ab34 243c a061 463c 38cf 6e3c
00000170: 2397 f43b 154e 153c 8184 963c 5ea6 97ba
00000180: cb1a 17bb a6d2 b83a 654c beba 64fb e53b
00000190: dc15 d33b 3046 043c 8b8a b63b 61a9 ed3b
000001a0: fea5 493b 98cf 2f3a 8c73 cb3b 3ee5 c33c
000001b0: 581f 9a3c 33d9 563c 334e 5b3c 924f d6bb
000001c0: d613 cb3c 4d62 c53b 0a3a 143c 6ede 3b3a
000001d0: 577e c43c 059d 753c a1f1 c73b 4480 803c
000001e0: 3fb3 fb3c 945e 64bb b094 c83a 58ee 4c3c
000001f0: 2779 203c a7df 45bb 3367 663c da89 0bbc
0.013546033 -0.0007718871 0.011961211 -0.0021156473 0.012867599 0.0054842746 0.02403689 0.011672768
0.012171027 0.012700616 -0.002753198 0.035431217 0.0021636516 -0.00067137077 -0.0071586724 0.018514672
0.01213481 0.043646153 0.0050758827 0.010406206 0.013764657 -0.001241647 0.009445548 0.00011638978
0.010142677 0.007577485 0.0012484421 0.023999898 0.0037611348 0.011610748 0.035622 -0.0039790967
0.015277779 0.004331955 0.0035475513 0.016381184 0.009471185 0.00092674675 0.028811816 0.014543255
0.009320753 0.0008694406 0.033588693 0.005345303 0.003287142 0.018598013 0.012883916 0.025638461
0.0041254074 0.013621825 0.01565514 0.007265944 0.0052505154 0.006608804 0.023056766 0.016335765
0.010596029 0.03122922 0.0154832415 0.013429456 -0.009029804 0.002278209 0.008309106 0.038423322
0.013502821 0.019064995 0.017760163 0.0011437696 0.016063418 0.009293594 -0.0031139588 0.029554931
0.012068369 0.04380255 0.009663367 0.006493416 0.027026027 0.015585593 0.010656431 0.0009000511
0.004638097 0.013783474 0.043394566 0.012385565 0.0024934937 0.0047951452 0.02138378 0.011270901
-7.136753e-05 0.010022323 0.012108237 0.014575772 0.007464306 0.0091128545 0.01837373 -0.0011569967
-0.0023056741 0.0014100864 -0.0014518617 0.0070184935 0.006441815 0.008073375 0.005570715 0.0072528576
0.0030769105 0.0006706654 0.0062088426 0.023913022 0.018813774 0.013113308 0.013385343 -0.0065402472
0.024789732 0.0060236813 0.009047041 0.00071666285 0.023986025 0.01499105 0.0061018025 0.015686162
0.03072512 -0.0034846412 0.0015303101 0.012507997 0.00979451 -0.0030193122 0.014062691 -0.008516753

action_model._discrete_distribution.branches.0.weight f4 [2, 128]
00000000: 92a4 733d e073 e0bc 7670 623d 0eda bfba
00000010: 832a 5d3d f859 3bbd 5780 533d e49c dabc
00000020: b4d3 1fbd 68aa 6e3d 39a9 0dbd f8d2 94bd
00000030: 80ef 46bd c136 13bc 6d39 2dbd df65 3e3d
00000040: 0309 24bd fd45 a1bd e56d f33c cc9a 603d
00000050: 2e75 793d 5487 2ebc a40b 683d e97c 2dbd
00000060: 618a 4a3d 7a58 39bd a080 49bd 302f 16bd
00000070: c4c1 d2bb 8fbc 6bbd cfc9 b6bd 0d0a 60bc
00000080: 6bc1 493d 5a5d 233d 880c 2dbc ac25 113d
00000090: 11fb 333d 333b 903b 571c 8e3d 4a7e 893d
000000a0: d817 433d 54b2 d1bb 20b4 49bd cdc3 05bd
000000b0: 5268 1ebd f211 1b3d 0d10 753d 12d4 863d
000000c0: ac08 1fbd e96d 5c3d 564e 073d a509 523d
000000d0: 9828 843c e9d5 083d fb03 423d e8dd 5b3d
000000e0: 1828 5f3d edb4 eebd a851 303d 8243 273d
000000f0: 78e8 77bb ba90 eabc c3e4 733d 4052 febd
00000100: 0994 573d 1959 523d 3207 843d fead 04bb
00000110: 8827 563d 5826 3cbd 24a8 c2bc 2ed5 623d
00000120: 5fab 363d 842b bdbd 5b1c 7f3d bfdf 01bd
00000130: ed0f 71bd 56c2 3c3d 94d4 f63c 746f 8dbb
00000140: f823 35bd 9185 5c3d a8f1 71bd 0dc1 063d
00000150: 55ef 01bd 8304 683d f02a 6a3d a2e4 583d
00000160: abda a8bc d9c2 04bd 94c0 623d 9544 633d
00000170: 1ef5 5e3d c372 e8bc 3b7a b03d 3693 d8bc
00000180: a6bb acbc f3c0 273d ee3a 13bd b49d c4bc
00000190: bf38 2b3d 424c 823d f300 323d 1e51 133d
000001a0: 07f2 a9bb 8b28 e7bc a946 63bd 82ac 4e3d
000001b0: 4c00 a03d abb8 393d a9f1 883d 1ad9 f9bb
000001c0: 06dc 60bd 8cb5 febc efb6 51bd ff38 d1ba
000001d0: fbc7 c7bd 53ea 553d 6f39 8bbc 1c4f 4f3d
000001e0: a92e 19bd a2f1 24bd ec8b 363d a6ee 7f3d
000001f0: f963 903d c691 71bc 4e70 5a3d c633 84bc
00000200: 7b1a 63bd 1a58 0a3d 0ffa 53bd 76b6 a1ba
00000210: 4d1a 6cbd 3519 563d e137 62bd 582d 9d3c
00000220: 74d9 c73c 81d3 44bd 6889 b63c 13d8 973d
00000230: e4a8 093d f2aa 273d 70d0 c43c da53 77bd
00000240: adc1 173d d6db ba3d a1f3 18bd f05b 63bd
00000250: f2ee 57bd 5e76 fc3c 717c 6abd fc38 503d
00000260: ca78 09bd 0233 463d f9b7 433d dfe6 043d
00000270: 08b3 e03b d1b2 613d c2bd d13d c65b 5c3c
00000280: a41c 6ebd 7558 34bd 84f2 073d 7462 36bd
00000290: 3d6e 51bd 16d8 12bc b2c2 6dbd 506c 6fbd
000002a0: a336 40bd 9196 043d 5b68 843d 3382 193d
000002b0: 2005 fc3c e9e3 37bd a207 5abd 5393 59bd
000002c0: 196e 073d 5148 6bbd 104e 37bd ee42 5ebd
000002d0: af35 05bc 6e64 08bd 233b 63bd 8d31 78bd
000002e0: 94a6 5ebd b310 de3d 0f7d 75bd fd8b 37bd
000002f0: 025f df3c 4f22 c83c 6219 6bbd af22 ea3d
00000300: 38fd 60bd f75f 5abd 4ef4 6abd 985c a1ba
00000310: 7203 99bd c925 5f3d ec1b 9f3c dc83 43bd
00000320: f28e 0cbd 06e8 a43d 0bbe 4dbd 8e15 1c3d
00000330: 49e8 4b3d 778f 3fbd 5f13 59bc 5e1b 9cbb
00000340: b3b9 103d d764 59bd 4058 793d f526 05bd
00000350: 48f0 493d be35 83bd 1304 5cbd 8243 49bd
00000360: c994 e13c bf13 e33c ef07 1cbd e7bc 55bd
00000370: 937d 2ebd 414c a43c 79a1 b8bd 9bba 203d
00000380: 660b 243c 1f68 6cbd e7ee 553d e980 b23c
00000390: 075a 28bd 70f6 8abd e379 20bd 623a 36bd
000003a0: 23ff 8dbb a8ca 083d a5f2 3d3d 3f2c 41bd
000003b0: dd17 8abd af4a 7cbd 8500 50bd acb4 e23c
000003c0: df6d 733d 7683 433d 8c1e 163d 0c9f 9b3c
000003d0: 78a2 c93d 6dba 64bd 9f1f a83c 7b99 73bd
000003e0: 75ee 523d 7179 0c3d 3413 2dbd 4912 3abd
000003f0: 4538 96bd d88d 953c ae43 5ebd 91c8 8a3c
0.05948312 -0.027399004 0.055283032 -0.0014637129 0.05399562 -0.045740098 0.051636066 -0.02668614
-0.039020255 0.05826798 -0.03458521 -0.072668016 -0.04856825 -0.008985222 -0.042291094 0.04648387
-0.040047657 -0.07874677 0.029715488 0.054835126 0.060902767 -0.010652382 0.056651726 -0.04235545
0.049448375 -0.045250393 -0.049194932 -0.036666095 -0.00643179 -0.05755287 -0.08925211 -0.013674271
0.049256723 0.03988395 -0.01056207 0.035436317 0.043940607 0.0044015883 0.06938999 0.06713541
0.04763016 -0.006399432 -0.049244046 -0.032657433 -0.038673706 0.03785891 0.05982976 0.06583418
-0.03882663 0.053815756 0.03303369 0.05127873 0.016132638 0.033407126 0.047367077 0.053678423
0.054481596 -0.116556026 0.043046623 0.040835865 -0.003782777 -0.028633464 0.059544336 -0.12418032
0.05263141 0.0513545 0.06446685 -0.002024531 0.052283794 -0.045935005 -0.023761816 0.055379085
0.044597026 -0.092368156 0.0622829 -0.03170752 -0.05885308 0.04608377 0.030130662 -0.0043162648
-0.044223756 0.053838316 -0.059068352 0.03289895 -0.031722385 0.056644928 0.057169855 0.052952416
-0.020612082 -0.032412384 0.055359438 0.055485327 0.05443298 -0.028375035 0.086170636 -0.026437383
-0.021085571 0.040955495 -0.03594487 -0.02400098 0.041802164 0.06362201 0.043457936 0.03596603
-0.0051863226 -0.028217575 -0.05548731 0.050457485 0.078125566 0.04534213 0.06686718 -0.0076247575
-0.05489733 -0.031092428 -0.05119985 -0.0015962421 -0.0975494 0.052225422 -0.01699516 0.050612554
-0.037398014 -0.0402695 0.044567034 0.062483452 0.07050318 -0.014744228 0.05332976 -0.016137969
-0.055445176 0.033775426 -0.051752146 -0.0012337703 -0.05764227 0.052270133 -0.05522907 0.01918666
0.024395682 -0.04805327 0.022282317 0.0741426 0.033608332 0.04093451 0.024025172 -0.0603827
0.037049938 0.09123962 -0.037341718 -0.0555076 -0.05271811 0.03081816 -0.057247583 0.050835595
-0.03356246 0.04838849 0.047782872 0.03244674 0.0068572797 0.055102173 0.102412716 0.013449615
-0.058132783 -0.04402967 0.033190265 -0.044527486 -0.051130522 -0.008962652 -0.058047004 -0.058452904
-0.046927106 0.032370154 0.06465217 0.037477683 0.030764163 -0.044895086 -0.053229935 -0.053119015
0.03306398 -0.057442013 -0.04475218 -0.054263048 -0.008130475 -0.033298902 -0.05547632 -0.06059413
-0.05435808 0.10843029 -0.05993372 -0.044811238 0.027266983 0.024430422 -0.057397254 0.114323966
-0.05492899 -0.053314175 -0.057361893 -0.001231092 -0.0747136 0.054479394 0.019422494 -0.047733173
-0.03431601 0.080520675 -0.050230067 0.038106494 0.04978207 -0.046767678 -0.013249247 -0.0047640046
0.035333347 -0.053074684 0.060875177 -0.032507855 0.049301416 -0.06406735 -0.053714823 -0.049136646
0.027536767 0.027719377 -0.038093504 -0.052182104 -0.042600226 0.020055892 -0.090151735 0.03924046
0.010012483 -0.057716485 0.05222979 0.021789985 -0.04110148 -0.067852855 -0.03917874 -0.044489272
-0.004333393 0.033396393 0.046373982 -0.047161337 -0.06742833 -0.06159466 -0.050781745 0.027674042
0.059430953 0.047732793 0.036650226 0.018996738 0.098454416 -0.055841852 0.02052289 -0.059472542
0.05149694 0.034295503 -0.04225464 -0.045427594 -0.07334951 0.018256113 -0.054263763 0.01694134

action_model._discrete_distribution.branches.0.bias f4 [2]
00000000: 2996 503b 1b96 50bb
0.0031827784 -0.003182775

exp_avg f4 [128, 34]
00000000: 797c 4c38 5827 9a38 293b 4c38 4cb8 a238
00000010: c49a 4c38 5d8e 9638 db93 4738 5f88 ae38
00000020: 2a12 4b38 f69f 9238 4e08 5038 c364 ca38
00000030: 9cde 4f38 c813 9a38 ca5d 4c38 e01d fd38
00000040: 6b6c 4b38 3035 9838 b0c6 8e39 d266 9e39
00000050: 75c3 4938 a375 9a38 9e1e a239 e95d 2039
00000060: cffb 1a38 4c09 8638 b0fd cf39 8174 cf39
00000070: 244c de37 a1e2 b938 3570 193a 8cd6 e539
00000080: 5760 203a a1a3 9639 211d 02b9 5388 34b9
00000090: edf0 01b9 cb78 3db9 7820 02b9 97bb 30b9
000000a0: 4a88 feb8 8f61 49b9 cc48 03b9 2c9b 2db9
000000b0: 9e3c 06b9 3e3f 67b9 950e 06b9 02cd 36b9
000000c0: 7f98 04b9 0223 8db9 c683 03b9 2202 34b9
000000d0: 0eb0 33ba 4938 48ba 5c19 02b9 5693 34b9
000000e0: 8015 4cba 16d7 d5b9 a2a4 c3b8 7639 16b9
000000f0: c042 7dba 7676 7cba d26e 8bb8 0e4c 5db9
00000100: 74cf d4ba 2494 93ba e46c e2ba 8ef3 4bba
00000110: 0cd3 6435 805f 28b5 009c 6535 e050 26b5
00000120: b87d 6735 087b 1eb5 28c2 6e35 4048 2cb5
00000130: 6fb8 aa35 a893 b0b4 0ed7 a435 3078 2fb5
00000140: 26b5 a635 f8db dfb4 53f3 a735 00f9 60b5
00000150: 36fd aa35 c0ca 14b5 ec34 3036 a60d 03b7
00000160: ae53 a835 e87e 44b5 d0bc c334 f500 e7b7
00000170: b850 5535 9ccb cab5 84a9 7838 8d73 7738
00000180: d0e9 6432 7ca6 51b6 8684 2838 9e31 5138
00000190: d777 05b7 a3c0 2fb7 4def 95b5 0e61 27b7
000001a0: 0754 95b5 8c32 38b7 5a5f 98b5 640e 20b7
000001b0: d45b 96b5 cecf 54b7 fb38 a1b5 e4f0 1eb7
000001c0: 55a8 9db5 bcdc 82b7 c188 9fb5 7dd7 26b7
000001d0: 1bdb 9fb5 dd4a b3b7 252c a1b5 7e47 31b7
000001e0: 18ba 33b8 edcf 28b8 015b a0b5 f6a0 43b7
000001f0: c144 35b8 442a d1b7 8571 88b5 1765 5ab7
00000200: cc02 abb8 3ba6 aab8 12d6 23b5 08ee 9ab7
00000210: 098f acb8 a80f a1b8 ba77 85b8 5695 2fb8
00000220: f7d9 e935 ab8c 13b7 7d91 e835 5026 1db7
00000230: 3255 ea35 7429 0cb7 0126 dd35 9c3b 32b7
00000240: dec5 f035 96eb 0eb7 224c fc35 9d65 54b7
00000250: 9a58 fb35 141c 0ab7 af05 0136 d3c1 8bb7
00000260: 00ec f035 8210 20b7 2f63 0a37 79fe 6737
00000270: 2efa e835 48e4 40b7 a311 3b37 adc9 17b8
00000280: 367d a435 cf23 8db7 4aa1 5038 4f92 4f38
00000290: 17fa 8535 080d 80b7 c772 0139 2af7 8c38
000002a0: 9a8a ff38 1cdf 7237 7f0c fc35 5a23 1836
000002b0: 75cc fe35 8b4f e835 ea1e f935 2905 1936
000002c0: 8972 0636 fe06 9935 f2f9 d835 a02b 2236
000002d0: 41e1 cc35 c0fb 35b3 96ca cc35 1a4d 9b35
000002e0: b2ca c735 2429 03b6 b619 d835 795d e035
000002f0: 9537 72b8 15fb 83b8 e5c3 d835 c801 2236
00000300: c8eb 90b8 606f 8c37 606a d335 078f c536
00000310: 2fa2 06b9 9600 06b9 7642 e135 75a0 8fb6
00000320: 7b7f 70b9 1aa9 19b9 0805 74b9 74e3 97b8
00000330: 738c 4bb6 02e3 7fb7 59c7 4ab6 7843 8db7
00000340: 871b 4cb6 bafc 73b7 292a 41b6 8753 a2b7
00000350: 88cc 53b6 3bed 6eb7 c475 5eb6 73ee cab7
00000360: 8445 5eb6 5487 82b7 b3a4 59b6 5a4f 0cb8
00000370: 4268 55b6 249d 86b7 f208 95b8 b835 acb8
00000380: 1d7e 52b6 0f95 8eb7 f042 b7b8 006c 31b8
00000390: a253 dfb5 6a4b 8ab7 1ba9 ebb8 29f9 eab8
000003a0: 60a4 d3b5 d55e f1b7 6e34 22b9 880f fbb8
000003b0: 26c1 3cb9 b1eb bfb8 46b2 f3b6 7c87 0636
000003c0: 2df6 f2b6 70c1 3436 8b43 f3b6 2081 de35
000003d0: 2642 ebb6 c892 8b36 8e5f f4b6 304b f035
000003e0: 2c61 fdb6 d174 c736 100d fcb6 b0a1 f635
000003f0: 74c5 f7b6 4627 2a37 e3de f4b6 0882 4a36
4.8753314e-05 7.3506206e-05 4.8692487e-05 7.75909e-05 4.8781527e-05 7.1790746e-05 4.7583e-05 8.322368e-05
4.8415888e-05 6.9916176e-05 4.95988e-05 9.650879e-05 4.9559967e-05 7.346977e-05 4.8724738e-05 0.00012069545
4.8499944e-05 7.257832e-05 0.00027232384 0.00030212716 4.8104168e-05 7.365204e-05 0.0003092186 0.00015293773
3.6950976e-05 6.3913496e-05 0.0003967113 0.0003956892 2.6499918e-05 8.8637e-05 0.0005853207 0.00043838134
0.00061178714 0.00028732143 -0.00012408617 -0.00017216922 -0.0001239215 -0.00018069443 -0.00012409862 -0.0001685455
-0.000121370496 -0.00019205197 -0.00012520252 -0.00016556372 -0.00012801818 -0.00022053436 -0.00012784668 -0.00017433244
-0.0001264531 -0.000269197 -0.00012542223 -0.00017166932 -0.00068545423 -0.00076377817 -0.00012407213 -0.00017221025
-0.0007785186 -0.00040786777 -9.32899e-05 -0.0001432652 -0.00096611306 -0.0009630689 -6.6486784e-05 -0.00021104535
-0.0016236142 -0.0011259359 -0.0017274884 -0.0007780128 8.524373e-07 -6.272385e-07 8.553616e-07 -6.195751e-07
8.623715e-07 -5.903862e-07 8.8944444e-07 -6.418013e-07 1.2719664e-06 -3.288999e-07 1.2281541e-06 -6.5367476e-07
1.2420685e-06 -4.1697035e-07 1.2513286e-06 -8.3808845e-07 1.2739681e-06 -5.5429336e-07 2.6256848e-06 -7.811386e-06
1.2541329e-06 -7.320036e-07 3.645896e-07 -2.7537792e-05 7.9466145e-07 -1.5109431e-06 5.928568e-05 5.8997004e-05
1.33245095e-08 -3.1240334e-06 4.0177743e-05 4.9875693e-05 -7.95532e-06 -1.0475665e-05 -1.1171011e-06 -9.976573e-06
-1.112582e-06 -1.09790235e-05 -1.1352633e-06 -9.540094e-06 -1.1202596e-06 -1.2684568e-05 -1.2012018e-06 -9.473621e-06
-1.1746403e-06 -1.5599995e-05 -1.1886224e-06 -9.944543e-06 -1.1910191e-06 -2.1373324e-05 -1.2008283e-06 -1.0566668e-05
-4.285024e-05 -4.0247967e-05 -1.1947415e-06 -1.1660382e-05 -4.3217795e-05 -2.4934423e-05 -1.0165828e-06 -1.3017349e-05
-8.1544364e-05 -8.1371945e-05 -6.1033745e-07 -1.8469073e-05 -8.2282415e-05 -7.6799945e-05 -6.364235e-05 -4.186233e-05
1.7423289e-06 -8.794635e-06 1.732769e-06 -9.36685e-06 1.7459154e-06 -8.354302e-06 1.6476844e-06 -1.0623506e-05
1.793898e-06 -8.518711e-06 1.8797621e-06 -1.2659843e-05 1.8726744e-06 -8.231978e-06 1.9225806e-06 -1.6660348e-05
1.7950078e-06 -9.540587e-06 8.248534e-06 1.3827922e-05 1.7358159e-06 -1.1497243e-05 1.1150175e-05 -3.618903e-05
1.2255393e-06 -1.6825185e-05 4.9741277e-05 4.9488906e-05 9.982058e-07 -1.5264857e-05 0.00012345157 6.721758e-05
0.00012185164 1.4476271e-05 1.87791e-06 2.2670342e-06 1.898398e-06 1.7308497e-06 1.8560943e-06 2.280178e-06
2.0034224e-06 1.1401423e-06 1.6165998e-06 2.4165274e-06 1.5264742e-06 -4.2371312e-08 1.5258145e-06 1.157084e-06
1.4885647e-06 -1.9544468e-06 1.6100737e-06 1.6716505e-06 -5.774906e-05 -6.2933344e-05 1.6150267e-06 2.4140918e-06
-6.910373e-05 1.6741164e-05 1.5751684e-06 5.887708e-06 -0.00012839654 -0.00012779454 1.6783149e-06 -4.2804118e-06
-0.00022935674 -0.00014654212 -0.00023271528 -7.2426075e-05 -3.033111e-06 -1.5252039e-05 -3.0216381e-06 -1.6839927e-05
-3.0414392e-06 -1.4542771e-05 -2.8783782e-06 -1.93508e-05 -3.1560503e-06 -1.424114e-05 -3.3149126e-06 -2.4191313e-05
-3.3121041e-06 -1.5560225e-05 -3.2431387e-06 -3.3452503e-05 -3.180016e-06 -1.604722e-05 -7.10654e-05 -8.211605e-05
-3.1365846e-06 -1.699713e-05 -8.738588e-05 -4.230067e-05 -1.6639135e-06 -1.6486e-05 -0.000112371716 -0.00011204399
-1.5768564e-06 -2.8773598e-05 -0.00015469056 -0.000119715056 -0.0001800103 -9.151491e-05 -7.262718e-06 2.0046418e-06
-7.2408207e-06 2.6934686e-06 -7.2498274e-06 1.6577869e-06 -7.0112465e-06 4.1596104e-06 -7.2828907e-06 1.7903276e-06
-7.5513e-06 5.9442614e-06 -7.511706e-06 1.8375486e-06 -7.38416e-06 1.0141934e-05 -7.297714e-06 3.0176034e-06

exp_avg_sq f4 [128, 34]
00000000: 0d2d 1233 1d39 7c34 af87 0033 181c 8634
00000010: 9ab0 1133 35f8 7734 06fa db32 ec7f 9b34
00000020: df3b 1533 c9bd 7f34 0950 d732 27d8 cc34
00000030: 8da9 0233 e4c9 8734 99e3 d032 76b3 2335
00000040: 14a5 0833 0b7d 9934 0c3d 4e35 99cd c935
00000050: 0b8e 2633 0d1c c234 0ae9 0536 7e7f 1336
00000060: 249f 7833 dc76 0635 7ae9 3f36 1ddc 4336
00000070: d2ab ab33 3b71 4535 00ba 4436 b781 4836
00000080: 4aac 3a35 31ff b535 2160 8d34 031f 1336
00000090: bf98 8a34 a71b 1f36 954e 9334 b332 1136
000000a0: 2890 8b34 e8ec 3b36 3449 ae34 0193 1836
000000b0: 50be 8734 83fb 7636 44c0 a034 2f55 2736
000000c0: 40d2 8734 34ce c236 5fb5 a434 141f 4336
000000d0: 6221 ea36 b401 6937 5f13 dc34 5484 7f36
000000e0: 75c2 9637 b6b6 ab37 3503 6535 97e7 b636
000000f0: 5fdf d237 bc54 db37 571e b235 564d 0537
00000100: 3dbd df37 0969 e637 f2e2 ef36 da57 6337
00000110: 94d3 eb32 bf27 ac33 0f59 a832 3178 8633
00000120: d1f0 1a33 2611 c533 11cf 6d31 0f87 1c33
00000130: f07d 2033 732d cb33 104d b530 d8ab cb32
00000140: 4e08 ab32 f5ea b233 8f2f 972f 9745 9a32
00000150: 2fc5 fe31 008f 9733 0b40 0e30 384d 9c32
00000160: 4080 b931 051c 8733 0420 9a30 edf3 d532
00000170: 2e47 3a32 2865 8133 5e04 6633 adda a333
00000180: fa38 cf31 9fa0 6b33 df44 c733 0ded eb33
00000190: d22e 0232 7fde 6a33 e0b8 2132 7ecb e832
000001a0: b5c0 5a31 aab2 9d32 866d 5032 8883 0833
000001b0: e6c6 7330 5a99 6232 76d2 7c32 c350 1833
000001c0: 4d15 eb2f f475 4532 def0 8a31 2bdf fc32
000001d0: 9f25 882f a73c 5e32 51e9 b231 41ab 0c33
000001e0: 9e3d c431 0aef bf32 ceb6 d731 28ec 1933
000001f0: 7168 b632 8f7d 1c33 a2ec 5132 30eb 3733
00000200: 5d2d 5f33 ced4 8b33 5a77 6632 df22 4f33
00000210: f8d3 a033 e01a b933 aec4 0533 1845 8333
00000220: cd8b 3632 b1ab 0533 ff9e 9631 4ac9 d632
00000230: ba91 2332 83db 0233 7471 3530 fa5b b132
00000240: 5c17 0732 6376 fd32 98ab 0e30 a3c2 c032
00000250: 67a7 5131 4611 e132 215d bf2f 854c 0d33
00000260: e707 8830 6951 ce32 0beb 1f33 651b af33
00000270: d6cb c72f 7a2f d132 2fe3 fd33 d0fa 0734
00000280: bd1c 8a30 be0d fa32 b348 3f34 0bc7 4234
00000290: b057 2b31 1480 2f33 21cc 3d34 816c 4434
000002a0: 0b23 cc32 298a 9333 40e0 8231 b37c 6133
000002b0: c668 0131 d1eb 6133 7232 d431 dd68 7233
000002c0: 143c b82f 737d 7b33 1113 cc31 7f82 8133
000002d0: a887 b22f 9f6e a233 5f8b a531 a341 9833
000002e0: 81d3 9e2f 680a ff33 4847 4232 dbb9 c133
000002f0: f53b de33 bd8a 9634 f907 8232 02f9 fd33
00000300: 0582 c734 f417 f834 5acb ff32 7b47 2f34
00000310: bc28 2f35 d2bf 3d35 6048 5d33 8cf3 7d34
00000320: 5377 4835 607d 5535 8c96 3734 6707 c034
00000330: b50e 4a32 44a5 0334 593d 1532 6d4a 0134
00000340: 4de8 7132 ec5d 0d34 fd74 ed31 7414 0c34
00000350: 6b51 3332 6880 1a34 2dc0 bb31 4eb0 2834
00000360: 04bf 2b32 9c5c 3d34 6bea b731 526f 7034
00000370: 64ba 1133 95f4 8034 974e d633 3091 eb34
00000380: ecae 6833 94b1 ae34 a626 0c35 a851 5435
00000390: 077d 8c33 167b dc34 fe88 8135 1d9d 9735
000003a0: 1db7 7534 314a 2c35 25f5 a535 1d78 b435
000003b0: 0222 cf34 b0cf 4e35 6cae 5f32 0d0f 6433
000003c0: a918 c231 0815 1e33 a8d9 f132 ffa1 a233
000003d0: 5da5 8e31 1665 0433 cc5f 2e33 2d15 bb33
000003e0: 7a56 4531 ecc0 e632 7640 0633 2c83 b333
000003f0: 5e85 1d31 778e ef32 d68b 9332 4a51 9533
3.4034247e-08 2.3490107e-07 2.9925726e-08 2.4979886e-07 3.392106e-08 2.3093965e-07 2.5608653e-08 2.8964075e-07
3.474622e-08 2.3817769e-07 2.506569e-08 3.8155233e-07 3.042219e-08 2.5292604e-07 2.4317886e-08 6.098338e-07
3.1815105e-08 2.8589452e-07 7.6829815e-07 1.5035504e-06 3.8779074e-08 3.6155726e-07 1.995419e-06 2.1978917e-06
5.7886737e-08 5.0091853e-07 2.859712e-06 2.9185387e-06 7.994062e-08 7.355299e-07 2.9314542e-06 2.9877826e-06
6.9541113e-07 1.3559821e-06 2.633324e-07 2.1922758e-06 2.581564e-07 2.3708942e-06 2.743806e-07 2.1636195e-06
2.5995655e-07 2.800307e-06 3.2463288e-07 2.2735333e-06 2.528418e-07 3.6803256e-06 2.9942214e-07 2.4934523e-06
2.5298687e-07 5.8056557e-06 3.0679345e-07 2.9075354e-06 6.9776297e-06 1.3888279e-05 4.0992288e-07 3.8074986e-06
1.7971945e-05 2.046987e-05 8.5313815e-07 5.4509833e-06 2.5137966e-05 2.6146292e-05 1.3270864e-06 7.945424e-06
2.6671793e-05 2.7467047e-05 7.149175e-06 1.3550709e-05 2.7453815e-08 8.016604e-08 1.9598273e-08 6.261724e-08
3.607494e-08 9.1766466e-08 3.4605743e-09 3.6444415e-08 3.7367442e-08 9.461191e-08 1.3191386e-09 2.3710456e-08
1.9910797e-08 8.331509e-08 2.7500532e-10 1.7959605e-08 7.41479e-09 7.057497e-08 5.175031e-10 1.8195905e-08
5.398789e-09 6.291524e-08 1.1214074e-09 2.4907388e-08 1.0842809e-08 6.025431e-08 5.355502e-08 7.630056e-08
6.0309704e-09 5.4861285e-08 9.279187e-08 1.09861595e-07 7.577642e-09 5.468473e-08 9.413469e-09 2.7100892e-08
3.1832716e-09 1.8358453e-08 1.2132096e-08 3.1784595e-08 8.8685537e-10 1.31897995e-08 1.4716184e-08 3.546371e-08
4.2761386e-10 1.1493729e-08 4.043712e-09 2.9438146e-08 2.4764987e-10 1.29358915e-08 5.207007e-09 3.2752045e-08
5.711356e-09 2.2344029e-08 6.278106e-09 3.583787e-08 2.1235083e-08 3.6435775e-08 1.2219205e-08 4.282191e-08
5.196249e-08 6.511401e-08 1.3414899e-08 4.822766e-08 7.4891375e-08 8.619622e-08 3.1145355e-08 6.112731e-08
1.0625581e-08 3.1122628e-08 4.3836503e-09 2.5004415e-08 9.520983e-09 3.046763e-08 6.6008643e-10 2.0647338e-08
7.8633455e-09 2.9506912e-08 5.190315e-10 2.2440252e-08 3.050866e-09 2.6201302e-08 3.480887e-10 3.2898715e-08
9.897548e-10 2.4018577e-08 3.7233843e-08 8.1540556e-08 3.6342723e-10 2.4352392e-08 1.1822555e-07 1.26641e-07
1.0048989e-09 2.911008e-08 1.7814709e-07 1.814007e-07 2.493362e-09 4.086185e-08 1.7676258e-07 1.8293396e-07
2.3764661e-08 6.870352e-08 3.8089922e-09 5.2500308e-08 1.8831527e-09 5.260137e-08 6.175747e-09 5.644039e-08
3.3512093e-10 5.8554587e-08 5.939349e-09 6.030768e-08 3.24744e-10 7.563835e-08 4.8179767e-09 7.089991e-08
2.8890315e-10 1.1876256e-07 1.1308494e-08 9.02107e-08 1.0348587e-07 2.8040623e-07 1.5137617e-08 1.1826525e-07
3.716124e-07 4.6211028e-07 2.977838e-08 1.632415e-07 6.5251857e-07 7.068712e-07 5.1521397e-08 2.3651063e-07
7.4679446e-07 7.953113e-07 1.7097972e-07 3.5768173e-07 1.17612915e-08 1.2260449e-07 8.68689e-09 1.2041137e-07
1.4080865e-08 1.3165817e-07 6.910908e-09 1.3045957e-07 1.0437684e-08 1.4389082e-07 5.464264e-09 1.5710359e-07
9.996942e-09 1.7635688e-07 5.352651e-09 2.239224e-07 3.3929965e-08 2.4019815e-07 9.979447e-08 4.38778e-07
5.41758e-08 3.253923e-07 5.2210305e-07 7.909498e-07 6.5420004e-08 4.106775e-07 9.651119e-07 1.1296103e-06
2.288402e-07 6.4182956e-07 1.2364804e-06 1.3446003e-06 3.8581499e-07 7.7043205e-07 1.3019967e-08 5.3099075e-08
5.6489466e-09 3.680637e-08 2.8155071e-08 7.57318e-08 4.1515436e-09 3.0825582e-08 4.059966e-08 8.711718e-08
2.871643e-09 2.6863255e-08 3.1257933e-08 8.359197e-08 2.2922317e-09 2.7888047e-08 1.7176642e-08 6.9531396e-08

exp_avg f4 [128]
00000000: 94fb c939 7c94 76ba 0444 7138 290e a8b8
00000010: 48e0 4838 98e5 02b9 3a5f e6b8 046e 99b6
00000020: 70ca b3b5 44cc 8e38 571f 3739 589b 89b9
00000030: ec7f 203a 3937 a8b9 2086 dd39 dd29 8839
00000040: 912c 5f38 cf10 abb8 ed4b b0b9 0f6c 9e39
00000050: 2a5f 30b9 3c88 24b8 ba7e 8439 b7e1 3439
00000060: 0d65 42b9 7b51 a838 9a3f b739 f270 40b8
00000070: 0659 52b9 62fc e638 3cc4 91ba 4c0e c939
00000080: 4694 99b9 3247 5039 113c 5e39 61be adb8
00000090: 1ed9 0bb7 e3ad e4b9 7625 133a 4dd3 db39
000000a0: b42a 9339 d078 21b9 f0ea ba37 196c dfb9
000000b0: 96e4 93b9 2064 0b38 8879 d139 ce27 3336
000000c0: b9de dfb7 4eaa 7d39 a3b1 af39 897f 9139
000000d0: 3970 44b8 d71c a639 90c5 353a ea90 32b8
000000e0: f5f9 e5b8 dd5e 81b9 4e64 31ba 3c1e b239
000000f0: ab85 bdb8 e40a 03ba 0236 ba38 8fe9 5338
00000100: 5e30 cb39 7ab6 22b7 77e3 e239 cae2 6538
00000110: 1518 cfb6 38da 3839 4ac8 d1b7 e8ba cf39
00000120: 76b1 16b8 9219 0538 70b9 f839 401d 02b9
00000130: 1ed7 0eba 50a7 2aba d62c 98b8 7471 8e38
00000140: 48b0 90b6 6e08 02b8 72d4 64b8 40fb c0b8
00000150: c140 c636 f494 e3b9 f42c 3239 1ecb 043a
00000160: 52dc a739 85da 1eba d287 13ba 53dd 07b9
00000170: f77d 8eb8 245e 96b9 8ba2 b539 503a c838
00000180: 1a74 d8b9 3dcc 07b8 ce57 c439 e198 8639
00000190: aeb5 233a 02c3 8139 0546 6338 9c70 dcb8
000001a0: 0877 abb9 9bab 8dba 1885 9839 caf3 d3b8
000001b0: 8ead 253a 98f2 fd37 7e35 c7b9 c9aa 113a
000001c0: 4242 2738 882a 39b7 ae47 26ba a414 d0b7
000001d0: 3cbe c739 501d efb8 d40d de39 0344 67ba
000001e0: 7b22 8038 ee73 32ba 2e72 45b8 bcaf 01b9
000001f0: 324b a337 4624 6839 a73a 8d37 feca 5139
0.00038525148 -0.0009406281 5.7522222e-05 -8.013502e-05 4.7892594e-05 -0.00012483296 -0.00010984992 -4.572563e-06
-1.3395456e-06 6.809135e-05 0.00017463915 -0.00026246416 0.00061225775 -0.000320846 0.00042252336 0.00025971132
5.320885e-05 -8.157046e-05 -0.00033625905 0.00030216618 -0.0001682012 -3.9227525e-05 0.0002527142 0.00017250223
-0.00018538926 8.026041e-05 0.00034951867 -4.5881556e-05 -0.00020060324 0.000110142646 -0.0011121104 0.0003834836
-0.00029292906 0.00019862948 0.00021193946 -8.284744e-05 -8.335597e-06 -0.00043617105 0.0005613187 0.00041928366
0.0002806984 -0.00015399163 2.228233e-05 -0.00042614414 -0.00028208335 3.323343e-05 0.00039954134 2.6696248e-06
-2.6687385e-05 0.00024191404 0.0003351095 0.00027751576 -4.6834557e-05 0.00031683475 0.0006934041 -4.257347e-05
-0.00010966129 -0.00024675476 -0.0006766961 0.00033973332 -9.03712e-05 -0.0004998876 8.879231e-05 5.052384e-05
0.00038755214 -9.698439e-06 0.00043275554 5.480907e-05 -6.1718843e-06 0.000176289 -2.5008008e-05 0.00039621373
-3.592806e-05 3.1733485e-05 0.00047440408 -0.00012408663 -0.0005448925 -0.0006509917 -7.256276e-05 6.79222e-05
-4.3120563e-06 -3.1002266e-05 -5.455729e-05 -9.2020724e-05 5.908398e-06 -0.00043407793 0.00016992149 0.0005065667
0.00032016874 -0.00060597836 -0.0005627844 -0.00012957053 -6.7945504e-05 -0.0002868037 0.00034644114 9.547605e-05
-0.00041285233 -3.237672e-05 0.00037449453 0.00025672375 0.0006245029 0.0002475009 5.418623e-05 -0.000105113926
-0.00032704347 -0.0010808589 0.00029090862 -0.00010106673 0.0006320112 3.0272917e-05 -0.00037996093 0.000555676
3.987761e-05 -1.1036762e-05 -0.00063430786 -2.4805144e-05 0.00038097973 -0.00011401868 0.00042353442 -0.0008822085
6.109938e-05 -0.0006807436 -4.70748e-05 -0.00012367865 1.946613e-05 0.00022138757 1.6835822e-05 0.00020007414

exp_avg_sq f4 [128]
00000000: 1848 4e36 4d88 ed37 79ad a134 3031 3c34
00000010: ecdc 7634 a269 7735 95d3 dc35 14c1 8234
00000020: d327 3233 3611 f335 352a 0836 9c44 2336
00000030: 396f 0a37 74d3 d336 0784 bc35 d375 6335
00000040: 4a79 e033 f13f 2c35 b719 5a37 633d 0936
00000050: 91cd 0f35 a269 2134 e0d5 5336 069b 8f36
00000060: d66d 6635 c671 2936 2cfa 1136 8a3f 6935
00000070: 9c19 3236 1aa3 dd34 54d7 e637 18ec ca36
00000080: 24a1 5137 a5dd e335 6c32 0b36 5757 9834
00000090: 70d6 6832 5e09 2737 09e7 0137 8b2e a136
000000a0: 1841 9335 6bbc 1735 2696 d235 4cd8 7637
000000b0: 218a 9b35 dd72 e634 5e86 5336 22ba f533
000000c0: 5861 9934 e2c7 7436 0fb4 5636 3590 9436
000000d0: ae04 8a34 4157 2837 1c3e 3f37 949b b334
000000e0: aeef 3e36 00c4 6036 6c3a 7d37 e397 0337
000000f0: 765f fc34 7674 9736 07a8 ef33 5bfd 3b34
00000100: 9387 ab36 8ff8 a034 6779 0837 5e53 1e35
00000110: 4636 4233 e271 9736 65ea 0335 1394 f135
00000120: 0aec 1134 b7fb 9b35 9ea7 8936 8e5d ad34
00000130: 6ed0 1c37 c237 a137 17fc 8134 382f 1834
00000140: bac3 bb35 560e 6334 086b 8f34 8b31 2435
00000150: 7590 ee32 baaa 2f37 8080 3335 637f b036
00000160: b828 fc35 fe5f 8437 2884 2d37 fa65 4b35
00000170: 2d5a dc34 2232 3537 649e 8f36 81a1 6834
00000180: 07de 2937 4f88 5533 cbba 3f36 3788 5135
00000190: 0546 d036 78da 7d36 03ac a435 b4dd 1d35
000001a0: cf40 8c36 ac73 5538 3021 9b36 74bb 1a35
000001b0: 3ee9 3c37 1496 8b34 8503 4c36 4538 0737
000001c0: 923b 4934 77bb 8532 94e0 7537 ecc5 6d35
000001d0: 0e4c 5636 5e4d 8f35 3df4 b836 be1b ad37
000001e0: 0a6e c834 8977 b637 e2d0 2834 84db bd34
000001f0: 9233 6634 24e7 3b36 e322 2332 2ad4 7f35
3.0738356e-06 2.8316072e-05 3.0114805e-07 1.7526759e-07 2.2990906e-07 9.2168386e-07 1.6452856e-06 2.435487e-07
4.1480074e-08 1.810992e-06 2.0290147e-06 2.4328829e-06 8.251337e-06 6.3129064e-06 1.4045517e-06 8.4735547e-07
1.0452875e-07 6.416804e-07 1.29998e-05 2.0450323e-06 5.357079e-07 1.5032722e-07 3.1565942e-06 4.279779e-06
8.584151e-07 2.5249187e-06 2.1752303e-06 8.6891725e-07 2.6538974e-06 4.128313e-07 2.7518407e-05 6.047554e-06
1.2494889e-05 1.6977325e-06 2.0741963e-06 2.8375754e-07 1.3552935e-08 9.956157e-06 7.742791e-06 4.803592e-06
1.0971298e-06 5.652607e-07 1.5689918e-06 1.4713103e-05 1.1588601e-06 4.2924412e-07 3.1519662e-06 1.1442559e-07
2.8569298e-07 3.647518e-06 3.1993293e-06 4.4275316e-06 2.5707908e-07 1.0033896e-05 1.1398948e-05 3.3454546e-07
2.8451718e-06 3.3492688e-06 1.50935775e-05 7.843572e-06 4.7008115e-07 4.5137085e-06 1.1159869e-07 1.7507902e-07
5.11198e-06 2.9983173e-07 8.134498e-06 5.89809e-07 4.5218506e-08 4.5134084e-06 4.914239e-07 1.7998995e-06
1.3590048e-07 1.1621659e-06 4.1024314e-06 3.229183e-07 9.346853e-06 1.921866e-05 2.4211542e-07 1.4173281e-07
1.398955e-06 2.1146238e-07 2.67137e-07 6.1166855e-07 2.7772538e-08 1.0470563e-05 6.686969e-07 5.2600385e-06
1.8787314e-06 1.5780326e-05 1.0342374e-05 7.577179e-07 4.1043805e-07 1.0800113e-05 4.280171e-06 2.1665439e-07
1.012488e-05 4.97169e-08 2.8569946e-06 7.8056786e-07 6.2070344e-06 3.7827103e-06 1.2269014e-06 5.880968e-07
4.17987e-06 5.0890885e-05 4.6232235e-06 5.764225e-07 1.1259979e-05 2.5999964e-07 3.0400417e-06 8.059728e-06
1.8741255e-07 1.5568487e-08 1.4655427e-05 8.8577394e-07 3.1932755e-06 1.0676847e-06 5.5120604e-06 2.0636126e-05
3.7332967e-07 2.1751754e-05 1.572221e-07 3.5363712e-07 2.143918e-07 2.7999713e-06 9.495781e-09 9.530364e-07
