Project/Assets/Trainers/results/FlappyAI/FlappyAI/FlappyAI-603108.onnx (onnx, 87877 bytes, 6 tensors)

network_body._body_endoder.seq_layers.0.weight f4 [128, 34]
000000 2e db 84 3e b6 9d 51 bd ac 74 d4 bc 5a 71 1e 3d
       0.2594847 -0.051175795 -0.02593454 0.03868232
000010 4c ca fb bd bf 80 ea bc ac 1c c2 bc 1a 6b 38 bd
       -0.122944444 -0.028625844 -0.023695312 -0.045024015
000020 85 93 b7 3a 94 74 a4 bb 39 15 16 3f 78 5d a9 bd
       0.0014005756 -0.00501878 0.58626133 -0.08269781
000030 41 83 ed be 19 0d 7e 3e cb 1e 8c be 6b bc 91 bd
       -0.463892 0.24809684 -0.27367243 -0.07116016
000040 52 fb 4b be d5 31 23 3d 15 b0 0d be e8 6d 45 be
       -0.1992009 0.039842445 -0.13836701 -0.19280207
000050 b0 01 33 3e 4a 32 4c 3e 1b cf 0c 3d d0 df dd 3d
       0.17481112 0.19941059 0.0343772 0.108337045
000060 c8 21 84 3e 90 bf 98 3d 20 18 f7 3d 2a 1e c0 3d
       0.25807023 0.07458413 0.12065148 0.09380753
000070 b7 75 ae be 26 01 d2 3e 9a c5 a9 3e 72 a7 b5 3e
       -0.34074184 0.410165 0.3315857 0.35479313
000080 3f e4 51 bc df ce d8 bd 53 2b 9d 3e ce ce d5 bd
       -0.012810766 -0.105863325 0.30697116 -0.104398355
000090 9c dd 6a be 6b 0f 20 be 59 fd 24 3d a3 c5 05 3d
       -0.229361 -0.15630881 0.040280674 0.032659184
0000a0 36 94 dc 3e 55 38 82 3e d2 04 7b 3d 22 f2 52 3d
       0.43081826 0.25433603 0.061283894 0.051500447
0000b0 db b7 8a be aa ab 76 3e 64 a5 1e bd bd 78 e3 be
       -0.27093396 0.24088922 -0.038731948 -0.44428053
0000c0 5d 9f 79 3e f5 cc bc 3b e4 6b f3 3d 66 11 e6 be
       0.24377199 0.0057617375 0.11885813 -0.4493515
0000d0 9a 5a 49 3e 2f df 89 3e 49 3a fc 3c a7 73 eb be
       0.19663468 0.26928088 0.030789511 -0.45986673
0000e0 e3 e9 f7 3d 11 61 71 3d 9d 43 f0 3c 09 92 a7 3d
       0.12105157 0.05893046 0.029329116 0.08182151
0000f0 64 04 c3 bc d8 68 9d 3e aa 02 70 bd 1c 52 00 be
       -0.023805805 0.30744052 -0.05859629 -0.12531322
000100 c3 8f 89 3e f5 12 94 3e c7 c9 80 bd 9c e9 a4 3d
       0.26867494 0.28920713 -0.06288486 0.0805237
000110 8d 17 57 be fe 48 87 3d b9 b4 9c 3a 56 b1 41 3d
       -0.21005078 0.06605719 0.0011955715 0.04728826
000120 3c d7 71 be c4 c8 5a 3e b8 5d 9c 3b 22 c7 0b 3d
       -0.23617262 0.21365649 0.0047719143 0.034125455
000130 88 d0 2e 3e 64 15 61 bd 2e 77 bf 3d 1e eb 6f be
       0.17071736 -0.05495204 0.093489036 -0.23429534
000140 d0 0e 5f bc ca dc 91 3e ea 2e 43 be 16 d9 6c 3b
       -0.013614371 0.2848876 -0.19060865 0.0036140135
000150 b0 82 55 3e ba 79 63 3d 9a 55 0b bc fd bb f0 be
       0.20850635 0.05553601 -0.008504296 -0.47018424
000160 54 d9 cf bd d7 09 51 3e 5f b9 94 be 63 61 ef be
       -0.10148874 0.2041391 -0.29047677 -0.46753988
000170 3d 6a 86 3b 7a a4 0a 3e 89 7c 07 be d1 06 e8 bd
       0.00410202 0.13539305 -0.132311 -0.11329425
000180 c6 4d 83 be 7a 80 4d 3d 4f 83 0b 3e 22 7a 20 be
       -0.25645274 0.050171353 0.13624309 -0.1567159
000190 d3 37 02 3e de c8 4e be 9f 6a 83 3d 6c bd 01 3e
       0.12716608 -0.20193812 0.06416821 0.12669915
0001a0 c6 d4 70 bd 21 9e 7b be 5b 20 86 3d 75 fe 48 be
       -0.058796667 -0.2457204 0.0654914 -0.19628318
0001b0 80 dc 85 3d ab 0d d5 bd b4 b9 22 3e a2 34 ed 3d
       0.06536198 -0.104029976 0.15891153 0.115823045
0001c0 84 03 86 bd 04 11 07 be af 0a 1b be 7b 73 bf be
       -0.06543639 -0.13190085 -0.15140794 -0.37392792
0001d0 23 33 60 3e a9 a7 e4 bd 2f 21 4c bd 4a ba 6e 3e
       0.21894507 -0.11164791 -0.049836334 0.23313251
0001e0 c4 ee 2b 3d 19 4f 24 be e8 f9 6b 3c d1 60 29 be
       0.04197575 -0.16045798 0.014402844 -0.16540839
0001f0 04 9e ce bd a3 a8 a8 be 7f c7 70 3e b7 36 d5 bb
       -0.10088733 -0.3294116 0.23513602 -0.0065067667
000200 07 f6 6d 3d e2 0a 26 be 9e 83 26 be 57 57 9f bb
       0.058095958 -0.16215089 -0.16261145 -0.0048627066
000210 a5 01 45 bd 85 b4 25 3e 46 9b 36 3e 1e 50 1d 3d
       -0.04809727 0.16182144 0.1783267 0.038406484
000220 0b 03 a3 bd 64 67 2e 3e 00 32 95 be e7 10 55 bd
       -0.07959565 0.17031628 -0.2913971 -0.052018072
000230 65 4e 19 be c4 41 5b bd 7c 94 37 be 42 95 e4 3c
       -0.14971311 -0.053529516 -0.17927736 0.027903203
000240 2e fd 4d bc a6 3b b1 3d 2f e8 bb bc 17 01 08 be
       -0.01257257 0.08653955 -0.022937862 -0.13281666
000250 c5 ae 0c be c2 16 fd 3d 22 0c f0 3d d5 1a e7 3d
       -0.13738544 0.12357856 0.11721064 0.11284415
000260 f2 47 c4 bd 70 7f 55 3d 44 54 4a be ad d8 86 be
       -0.09584035 0.052123487 -0.19758707 -0.26337186
000270 6c 33 ab be 76 ed 67 3d ba 8a 66 3e 70 51 18 bd
       -0.3343767 0.056622945 0.22513857 -0.03718704
000280 de 1a 81 3c e8 22 25 be ef 00 9e 3d 74 24 cc bb
       0.015759882 -0.16126597 0.07715022 -0.0062299315
000290 53 34 8a bc 77 af 24 3e 2d d6 c1 bc 2a 38 db 3d
       -0.016870653 0.1608256 -0.023661697 0.10704072
0002a0 83 1c 28 be 20 37 ab bd c4 85 0a 3e 63 a7 bf be
       -0.16417126 -0.08360124 0.1352759 -0.37432393
0002b0 b5 95 12 be 2f 89 c3 3c ce 34 15 bc 13 74 5b 3d
       -0.14314921 0.023869125 -0.009106828 0.053577494
0002c0 4c 63 4d be 38 b0 66 be 80 0d 51 3d 58 8f 85 be
       -0.2005741 -0.2252816 0.051038265 -0.26085925
0002d0 c7 86 d3 bd fe c9 1b bd f2 a0 39 be 5d bf 05 be
       -0.10328441 -0.03803443 -0.18127802 -0.1306128
0002e0 e1 70 84 3e 44 89 f1 3d 30 ce a8 3d d9 4f 93 bd
       0.2586737 0.117937595 0.08242452 -0.07192964
0002f0 26 ba e0 bd d0 9d a2 3d 53 d7 f5 bc a2 48 d2 bc
       -0.10973005 0.079402566 -0.030009901 -0.0256694
000300 1c 1d b3 bd 0e 04 ee 3b 83 16 6f 3d d6 62 87 be
       -0.087457865 0.007263667 0.05837108 -0.26442593
000310 ba 9e fb bc 81 e4 92 bd ad 78 b1 bd d6 67 4f bb
       -0.030715335 -0.0717249 -0.08665595 -0.0031647584
000320 4c e2 14 be b6 24 0c 3e be 83 f0 bd ca 1b a3 3d
       -0.1453945 0.13685879 -0.11743878 0.07964285
000330 25 1e f2 3d 1c d8 d1 bc 30 18 40 3d a0 96 a2 bd
       0.11822156 -0.025615744 0.046898067 -0.07938886
000340 8a e8 22 3d 59 d1 39 bc 44 f4 97 3e e8 51 d5 be
       0.039772548 -0.011341416 0.29678547 -0.41664052
000350 f4 b2 80 bd 99 7c eb be b9 09 8f be c3 ef 2c bd
       -0.062841326 -0.45993498 -0.27937105 -0.042220842
000360 82 f0 d6 be 82 83 f5 3d 67 7f 9a 3e 8c f1 82 3e
       -0.41980368 0.11987974 0.30175325 0.2557491
000370 86 e6 61 3e 5c 5a a6 be e2 34 a6 be b9 59 ae 3e
       0.22060594 -0.32490814 -0.3246222 0.34052828
000380 b3 77 27 3e ef 6a 8b be e8 40 08 be 61 59 ba bd
       0.16354255 -0.2723002 -0.1330601 -0.09099079
000390 68 46 06 bf 76 b3 b9 3d 74 fa 7e 3e 60 8d f7 bd
       -0.5245118 0.090674326 0.24900228 -0.12087512
0003a0 bd 9f 76 bd a7 1b 96 3e 54 76 35 3e c6 20 81 bd
       -0.060210932 0.29317972 0.1772092 -0.06305079
0003b0 78 93 fe bd aa af 7e 3e 36 f7 16 3e 9b 95 a9 3e
       -0.12430471 0.24871698 0.14742741 0.33121952
0003c0 0c 4b 00 be d9 7d d7 bd f6 2b a8 3e 2a 27 c0 3e
       -0.12528628 -0.105220504 0.3284604 0.3752988
0003d0 a8 b7 34 3d 4c cc 8d bc 26 20 28 3e de 25 a7 3e
       0.04412046 -0.01730933 0.16418514 0.32646078
0003e0 e0 20 98 bb f5 ee c9 bd d0 73 e5 3e c0 b1 dd bd
       -0.004642591 -0.098600306 0.4481492 -0.10824919
0003f0 76 66 0b be 1b 88 01 3d b3 0b ef bc 82 aa fc 3c
       -0.13613304 0.03162394 -0.029180383 0.030843023

network_body._body_endoder.seq_layers.0.bias f4 [128]
000000 de d3 a1 3b da 2f 3f 3d 5c 1e 08 bc a9 c8 33 3c
       0.0049385866 0.046676494 -0.0083080195 0.010973134
000010 08 5a 0d bb 66 98 88 3c 1b 9d 0b 3c 32 44 45 bb
       -0.0021568555 0.016674232 0.008521344 -0.0030100462
000020 5b 03 79 3b b5 76 83 3c 93 a5 8f 3c b3 5f 71 3d
       0.0037996385 0.016047815 0.017535007 0.058929157
000030 6c ad c5 3c 38 e0 b3 3c 20 59 9d 3c 0e ae 52 3c
       0.024130546 0.021957502 0.019207537 0.012858881
000040 43 14 d6 bb 39 47 98 3b 3e 87 8e 3c 40 e2 2a 3b
       -0.006533177 0.0046471623 0.017398473 0.0026074797
000050 60 25 99 b9 9d df 5e bb 96 22 fd 3c 58 c5 1d 3d
       -0.0002921028 -0.0034007796 0.03090028 0.03851828
000060 3c 40 cc ba af fa c9 3b d8 87 85 3c fd 76 36 bb
       -0.0015583108 0.006163917 0.016300127 -0.0027841919
000070 a0 33 6c 3c 45 9e 9c 3c f8 82 46 3d d5 15 ed 3c
       0.014416605 0.019118438 0.048464745 0.028941074
000080 c5 a0 15 3d b9 0a d7 3c d9 5a 9f 3c b9 ed da ba
       0.036530275 0.02625023 0.0194525 -0.0016702927
000090 8b c4 59 3d e1 49 04 3c ab d9 b3 3c 45 e9 0b 3d
       0.053165954 0.008074255 0.021954378 0.03415801
0000a0 30 8d 00 3d 38 5e 3b bc 46 b8 88 3c 12 53 f7 3c
       0.031384647 -0.011436038 0.01668943 0.030190978
0000b0 8d b0 e3 bb ba cd 1f 3c 8c 33 02 bc 65 11 38 3c
       -0.0069485367 0.009753639 -0.00794686 0.011234616
0000c0 10 fc af 3b 2f 6d d6 3c 7d aa 8d bb 12 ff 9f 3c
       0.0053706244 0.02617511 -0.0043233023 0.019530807
0000d0 1b c8 33 ba 27 d9 05 3d 2f e7 a1 3c 16 9a 82 bb
       -0.0006858126 0.032677796 0.019763557 -0.0039856536
0000e0 1d 26 1f 3c c1 09 97 3c 79 10 1f 3d d5 0c c0 3c
       0.009713677 0.018437268 0.03883407 0.023443619
0000f0 f2 dc 24 3c 39 25 75 3d 93 99 da 3b ab be f9 bb
       0.010062443 0.05984995 0.0066711395 -0.0076216063
000100 f7 00 d8 3c de 47 8d 3c de 45 a2 3c e8 df da 3c
       0.026367648 0.017246183 0.019808706 0.026718095
000110 f6 bf 4f bc 0d d2 92 3c c8 b6 8b bc 7e 1c 18 3d
       -0.012680044 0.017922426 -0.01705493 0.037136547
000120 ba 65 c1 3c 6a 2e 5d 3c a6 2b 13 bb da 25 3a 3c
       0.023608077 0.0134998355 -0.0022456436 0.011361564
000130 35 76 70 3c 1f e5 40 bb bc 22 f2 3b ff b7 e7 3c
       0.01467662 -0.0029433442 0.0073893946 0.028285978
000140 83 2d 13 3d a4 80 cf 3c 8f 9e c9 bc 0c 05 0a 3d
       0.035932075 0.025329895 -0.02461174 0.03369622
000150 b8 4b 86 bc 99 ec 2b 3d 7d 10 d6 3a a4 28 1d 3c
       -0.016393527 0.041973684 0.0016331818 0.009592209
000160 6b 28 c3 3b 40 3f 00 3c 55 11 9f 3d 03 9e 50 bc
       0.005955746 0.00782758 0.07766978 -0.012732985
000170 55 f7 58 3c 90 0f a7 3c 90 5a cd 3b c8 13 de 3b
       0.013242562 0.020393163 0.0062668994 0.0067772605
000180 17 5e 95 3c 58 9a cf 3c 60 26 49 bc 96 0d ef 3c
       0.018233342 0.025342152 -0.012277216 0.029181283
000190 06 5d a7 3c 62 94 99 3b 00 0c 9c 3c dd dd f2 3b
       0.0204301 0.004686878 0.01904869 0.007411702
0001a0 37 3b 8d 3c 72 03 92 3d c0 0e fd 3c 42 33 0f 3d
       0.01724015 0.071295634 0.030890822 0.034960993
0001b0 b9 8a 0d 3c d6 0d 90 3c f7 36 4f 3b 8e 5b 5e 3c
       0.008639031 0.017584722 0.0031618455 0.013571633
0001c0 aa 0f 5f 3a a2 63 63 bb cb 54 5a 3d 65 1d a4 3c
       0.0008509109 -0.0034696837 0.05330352 0.020033548
0001d0 3c a1 38 3b d8 9e 46 bc a4 46 04 3d d1 9c 84 3b
       0.0028172275 -0.012122832 0.03229393 0.0040470143
0001e0 45 0d f3 3b e5 dd 3c 3d 41 be d3 3a aa dc 20 3d
       0.0074173533 0.046110053 0.0016154723 0.03927294
0001f0 ac 4a 97 3c 7b bb c3 3c a2 7f 30 3c e9 d6 50 3c
       0.018468224 0.023893109 0.0107726175 0.012746551

network_body._body_endoder.seq_layers.2.weight f4 [128, 128]
000000 66 86 06 3e e2 72 d4 bd fe 8b d7 bd 1d 26 36 bd
       0.13137206 -0.10373475 -0.10524748 -0.04446994
000010 1b 70 3c bd d8 37 8e 3d 02 0d af bd f5 05 5a 3d
       -0.04600535 0.06944245 -0.08547403 0.053228337
000020 85 87 86 3c 42 05 f8 3c d5 ab 4d 3d a5 d5 a1 3b
       0.016422043 0.030275945 0.0502127 0.0049387985
000030 1a fa 12 3e 6c 7c 0d bd 26 2c 3d bd 2f 7e 8b 3d
       0.14353219 -0.034542486 -0.04618468 0.06811177
000040 68 0d 23 be 32 3e 9e bd ec 92 36 bd 94 02 23 3e
       -0.15923083 -0.077267066 -0.04457371 0.15918952
000050 93 76 92 3d 1a 05 81 be af 85 b5 3d f5 d7 d4 3b
       0.071515225 -0.25199205 0.08863389 0.0064954706
000060 51 ce b1 3d b9 bc 19 3d 99 d0 ab ba 36 b2 e5 3c
       0.0868193 0.037533496 -0.0013108432 0.02803908
000070 79 cb 67 ba 17 41 b5 3d 30 f9 19 3e 27 81 ed 3c
       -0.00088422705 0.088503055 0.15036464 0.028992249
000080 27 e3 d3 bb 42 e3 be 3d d0 99 fc 3d a2 a4 3f bd
       -0.0064662877 0.0932069 0.12334025 -0.046787865
000090 64 54 17 be 89 3e 21 bd 0a bf 89 bd 14 ce 95 3c
       -0.14778286 -0.03936628 -0.06725891 0.018286742
0000a0 68 41 a1 3d 19 c1 33 be 0c f1 98 bd ee 3d 52 bd
       0.078738034 -0.1755413 -0.07467851 -0.051328592
0000b0 fe d0 d9 bd 9f 92 77 bc 10 1b d4 3d ff a4 aa bc
       -0.10635565 -0.015110641 0.10356724 -0.02083063
0000c0 fd 0e ac bc 6e 3d f2 3d ff e8 01 bb 58 4e 13 3e
       -0.02100324 0.11828123 -0.0019822714 0.14385355
0000d0 b3 24 a6 bd a3 6e 9c 3d cf e3 71 3d 49 51 30 3d
       -0.081124686 0.0763829 0.059055146 0.04304627
0000e0 2a a3 f8 bc 5b 35 57 bd 31 90 32 be 8f f6 b7 3e
       -0.03035124 -0.052541118 -0.17437817 0.35930297
0000f0 bd 4d 83 bd 08 b5 81 3d dc ef 22 3c 32 6b 19 be
       -0.06411312 0.06333357 0.009944882 -0.14982298
000100 80 17 ee 3d 15 ea 01 be a1 86 26 3d fe d1 6f bc
       0.11625576 -0.12686951 0.040655736 -0.014637468
000110 d9 cf ff bd dd 8f e5 bc a2 24 4b be 8f 14 89 3d
       -0.12490816 -0.0280227 -0.19838193 0.06693374
000120 ab 7c 64 bd 0e 2e c0 3d d0 a1 56 3e 81 c6 38 b9
       -0.055782955 0.09383784 0.20960164 -0.00017621556
000130 d0 42 8f be e3 52 cb bd b2 9b 02 3e b8 07 20 3d
       -0.2798066 -0.09927919 0.12754706 0.03906986
000140 1d 29 78 bd 0c 13 3c be e3 3d bd 3d 24 f3 87 bc
       -0.060586084 -0.18366641 0.092403196 -0.01659543
000150 3f f0 10 3d 64 c2 cb bc 84 75 74 3c 37 74 01 3d
       0.035385367 -0.024872966 0.014920596 0.03160497
000160 e9 f4 ac 3d d1 9f 7c bb a1 35 e9 3c 20 f5 20 be
       0.084451504 -0.0038547406 0.028467955 -0.15718508
000170 a6 ff 9e 3d bf 54 3b 3d 2f 14 2a 3e 83 7d 05 be
       0.07763605 0.045735117 0.16609262 -0.1303616
000180 a1 12 30 be 3c 49 cd 3d 34 0f ce 3c 19 6f d1 bd
       -0.17194606 0.10023734 0.025153734 -0.10226268
000190 1a 9d 60 3d ae a6 6e 3e 7d be 2e 3d ff 6f 4b 3c
       0.054837324 0.23305771 0.042662133 0.012416839
0001a0 71 29 10 3c 28 f1 37 be e7 b9 05 3e 87 bb b7 bd
       0.008798943 -0.17963088 0.13059197 -0.08971315
0001b0 89 bf 14 3e 7a c5 5d bd 8f f7 f6 bd 0d 43 1b 3e
       0.1452619 -0.054143406 -0.12058937 0.15162297
0001c0 74 7d 90 3b a0 8c c3 3d 28 1c 1c bd d5 f2 24 3e
       0.0044094864 0.095483065 -0.03811279 0.16108258
0001d0 fd 58 bb bd e7 c8 67 3d 53 41 bc 3d 5a d9 fc bd
       -0.091478325 0.05658808 0.09192147 -0.12346144
0001e0 e4 a8 3d bd 54 09 02 be 9f 1f 86 3d 16 6e f3 bd
       -0.046303645 -0.12698871 0.06549 -0.118862316
0001f0 1d 5d 05 3e 43 1a c8 3d e3 8f d9 bd 55 84 a8 3d
       0.13023801 0.09770634 -0.10623147 0.08228365
000200 3e 13 44 bd 65 29 81 3d b7 44 d9 3d d2 a1 04 3e
       -0.047869913 0.063067235 0.106088094 0.12952355
000210 3b 8c dc bc 47 1d b3 3d cf 8e c6 3c 6d f2 d0 3b
       -0.026922336 0.087458186 0.024238018 0.0063765557
000220 5b 2f ac bd a5 5a 55 3c 0a e2 b5 bd 4c 09 b5 3c
       -0.0840747 0.0130221 -0.08881004 0.02209916
000230 1c 80 68 3d 2e 1c f7 bd c9 ea 48 3d 05 a7 e2 3d
       0.0567628 -0.12065922 0.049052034 0.11067013
000240 15 fe 19 3d 37 1d a9 bd 4d 46 20 be 2b 52 29 bd
       0.037595827 -0.082575254 -0.15651818 -0.041338127
000250 bd d8 df 3c d1 94 13 3c c1 65 10 bd 8f e9 32 3d
       0.027325029 0.009007649 -0.03525329 0.04367977
000260 94 73 92 3d e0 d5 dd bd 50 1a d4 bd 26 3b 56 bd
       0.07150951 -0.10831809 -0.10356581 -0.052302502
000270 7e 43 e4 bd 26 75 3c be df ec 1e 3e b7 f1 26 be
       -0.111456856 -0.18404064 0.15520047 -0.16303144
000280 69 e1 25 bc ac a3 d0 bd 6e 55 3a 3c 95 68 b7 3d
       -0.010124543 -0.10187468 0.011372907 0.08955494
000290 f4 24 1d 3d b4 03 74 be 90 3e 44 3e 0e 05 4f be
       0.03836532 -0.23829538 0.1916449 -0.20216772
0002a0 e9 02 28 3d 83 9a ad 3c c7 07 19 bd 9f 4e 8a bb
       0.0410184 0.021191841 -0.037360933 -0.004220798
0002b0 c6 fd 22 3d 45 b1 0f 3c a4 94 d2 3d e0 a3 de bd
       0.0397928 0.008770292 0.10282257 -0.108711004
0002c0 67 10 85 3c c0 e2 4e be de b5 92 bb 8f 4a 55 be
       0.016243173 -0.20203686 -0.0044772467 -0.20829223
0002d0 e1 b2 9c bd 82 d9 38 3d 61 9f d6 bd d3 78 53 3d
       -0.07651306 0.045129307 -0.10479618 0.0516289
0002e0 c9 5f c9 bd 22 cd e5 bc 64 2f c2 bc 81 60 fe bd
       -0.09832723 -0.028051917 -0.023704238 -0.124207504
0002f0 1e 88 0d 3d 1a 38 d0 bd d0 a8 6f bb 51 fb b9 3d
       0.03455364 -0.101669505 -0.0036569126 0.09081138
000300 7a 4b 15 3e 37 4f e8 bc 46 3a 0d 3e 6f 62 9d 3d
       0.14579573 -0.028358085 0.13791761 0.0768479
000310 59 81 83 3c 98 15 e2 bd f2 ff 6e 3c 87 12 3d 3b
       0.016052889 -0.11039275 0.014587389 0.0028850154
000320 41 3c 87 3d 24 f5 1a bd 62 72 29 be 50 c1 d7 3d
       0.066032894 -0.03783144 -0.1654754 0.10534918
000330 55 ee 21 bc c1 f3 82 be 87 a0 25 3b fe 55 67 3d
       -0.009883483 -0.25576594 0.0025272684 0.056478493
000340 c4 ca 13 3e 91 c6 a1 bd da c9 f2 bd 34 0f 17 3d
       0.14432818 -0.07899202 -0.118549064 0.036879733
000350 06 a1 cd 3d c1 ac 50 3d 1a cb 20 3e 88 94 1e 3d
       0.100404784 0.050946 0.15702477 0.03871587
000360 8f c4 3e bc 38 20 bf 3d b9 5b 92 bd cc 39 c7 bc
       -0.011643543 0.09332317 -0.07146401 -0.024319552
000370 17 c7 ce 3d 1b 90 13 3d b2 1c 10 bd 40 a3 27 3e
       0.10096567 0.0360261 -0.035183616 0.16370869
000380 f8 88 63 3d 49 09 ca 3d 71 db 7c bc f7 ed 7d bd
       0.055550545 0.09865052 -0.015433178 -0.06199452
000390 50 ac 0b be d3 c9 b6 3c fb 70 90 3d 6a 49 19 3e
       -0.13639951 0.022313034 0.07052799 0.14969411
0003a0 44 e5 34 3d 49 4e 7d bb 08 af 38 be 11 ee 7b bd
       0.044163957 -0.0038651398 -0.18035519 -0.061506335
0003b0 79 e0 77 bd ec 6a 87 be 7d 9f b2 bc 69 6f 6b 3d
       -0.06051681 -0.26448762 -0.021804566 0.057479296
0003c0 65 a2 28 bd 3f b1 d2 3d 84 f6 c2 bd 89 4f c1 bd
       -0.041170496 0.10287713 -0.095196754 -0.09438998
0003d0 d8 5b a7 bd cf fa 5b bd 9e 63 f5 bc 4c 01 d3 bd
       -0.08171815 -0.053705987 -0.029954728 -0.10302982
0003e0 d7 ff 12 3e 4c 26 91 bd 7d a9 f8 bc cf 43 30 3d
       0.14355408 -0.07087383 -0.030354256 0.043033417
0003f0 ef 5c 7b 3d d9 0e 31 3d 0d 4c 9b 3c af 04 d4 bd
       0.061367925 0.04322705 0.018957162 -0.10352456

network_body._body_endoder.seq_layers.2.bias f4 [128]
000000 97 c7 89 3c a0 33 b0 3a 59 a1 76 3c a2 34 10 bb
       0.016818805 0.001344312 0.015053117 -0.0022004028
000010 0b e2 86 3c 55 64 f5 3b f6 aa dd 3c 63 c2 1b 3c
       0.016465208 0.007488767 0.02705906 0.009506795
000020 61 59 4e 3c 51 bc 82 3c ac 8b ed ba d5 94 04 3d
       0.012594552 0.015958937 -0.001812329 0.0323685
000030 54 e6 2e 3b e2 51 3a b9 37 44 1a bc be 47 b6 3c
       0.002668758 -0.00017768846 -0.009415678 0.022251006
000040 32 29 49 3c bf d7 25 3d 94 45 15 3c 69 08 70 3c
       0.012277888 0.040488955 0.009110827 0.014650443
000050 63 41 92 3c bd bf 44 bb 62 f8 62 3c ea 53 26 bb
       0.017853444 -0.0030021511 0.013853164 -0.0025379607
000060 d1 75 64 3c 28 78 a4 3b 46 80 d9 3a 2b 8c af 3c
       0.013944105 0.0050192066 0.0016594015 0.021429142
000070 a2 72 62 3b a7 b8 10 3c 8d ea 05 3d f2 d6 9a bb
       0.003455319 0.008833087 0.03269439 -0.0047253305
000080 ee 0d 9c 3c 1d 1f f3 3b f8 a4 84 3b b8 3e a3 3c
       0.019049611 0.0074194805 0.004047986 0.019927368
000090 ff b9 3f 3c 21 bc 38 3b 29 3d 07 3d 24 03 8d 3c
       0.01170206 0.0028188305 0.03301731 0.017213412
0000a0 d5 22 4e 3c f1 00 67 3a 3d e4 fc 3c 7f 46 aa 3b
       0.012581547 0.0008812091 0.030870551 0.005196392
0000b0 3f 82 72 3b 3f 1a b2 3c 45 b3 87 3c 31 00 f2 3c
       0.0037003902 0.02174103 0.016564975 0.029541107
0000c0 6d cc d8 3a 60 32 88 3c 86 e2 99 3c f0 72 38 3c
       0.0016540416 0.016625583 0.018784773 0.011257872
0000d0 1a af 14 3c e1 65 1a 3c 45 81 da 3c 08 64 a7 3c
       0.009074951 0.009423704 0.026672969 0.02043344
0000e0 98 b2 6b 3c ca 1d e8 3c 15 ce a4 3c fd 50 86 3c
       0.014385842 0.028334517 0.020117799 0.01639604
0000f0 97 8d 33 bc 9b 07 59 3b 39 63 35 3c a6 01 10 3d
       -0.010959051 0.0033116105 0.01107102 0.035157822
000100 c9 9b 8a 3c 80 36 b9 3c c3 7e b0 3c a8 ae 68 3b
       0.016919987 0.022608995 0.02154482 0.0035504494
000110 de 61 a4 3c 3a 47 c3 3b 03 fc e5 ba a0 e8 03 3d
       0.020066198 0.0059594186 -0.0017546419 0.03220427
000120 c1 cc 83 3c 1c fc 26 3d eb 55 68 3c e5 49 0a 3c
       0.016088845 0.040767774 0.014180641 0.008440469
000130 3f 74 c1 3c 19 0f 98 3c ff 09 6e 3c dd 80 92 3a
       0.023615 0.018561887 0.01452875 0.001117732
000140 53 12 8c 3b 5c 4f 8e 3c 8a 5b 25 3d 59 9b 8d 3c
       0.0042746454 0.017371826 0.0403705 0.01728599
000150 2c e1 bf 37 c5 9a f6 3b b1 31 c9 3c 2b 72 72 3c
       2.2873828e-05 0.007525774 0.024559828 0.014797728
000160 b0 5e ae 3a 8c 4c 0c 3c 53 b3 7f 3c e6 03 a0 3c
       0.0013303366 0.008563172 0.015606719 0.019533109
000170 53 c0 33 3c ae 6f ff 3b 44 30 b7 3c 7f a1 a6 3a
       0.010971147 0.0077952957 0.022361882 0.0012712925
000180 e2 20 54 bb 42 18 af 3b 5c fd b8 ba 1c 15 02 3c
       -0.0032368232 0.005343468 -0.0014113593 0.007939603
000190 87 ca 1a 3c 09 8f 59 3c 77 9c 12 3c 3c b0 3c 3c
       0.0094477 0.013278731 0.008948437 0.011516627
0001a0 59 b5 53 3b d6 fd e0 39 b5 75 62 3b 48 06 e0 3c
       0.0032304137 0.00042913732 0.0034555022 0.027346745
0001b0 ce eb b8 3c 53 6a 85 3c 54 4d 85 3c d3 b3 0d bc
       0.022573378 0.01628605 0.016272224 -0.0086488305
0001c0 a0 3b b3 3c 8b 2f 80 3b 71 50 d1 3b 95 da 9e 3a
       0.021879017 0.0039119176 0.006387763 0.0012119586
0001d0 1e 5c ad 3c 44 37 a3 3c 51 fd bb 3b e0 99 96 3c
       0.021162089 0.019923814 0.005736985 0.01838392
0001e0 96 4f e4 3c b7 9f c5 bb dc b1 c4 3b f5 93 83 3c
       0.02786998 -0.0060310024 0.006002648 0.016061762
0001f0 44 6f 62 3c b1 ce 81 bb d2 a2 90 3c f8 eb 27 bc
       0.013820473 -0.003961407 0.017655764 -0.01024913

action_model._discrete_distribution.branches.0.weight f4 [2, 128]
000000 40 b3 82 3d 58 24 02 bd fa b8 71 3d a6 47 a5 bb
       0.063818455 -0.03177294 0.059014298 -0.0050439415
000010 15 07 7b 3d af c0 6e bd cb 91 5f 3d b3 20 d5 bc
       0.06128605 -0.058289226 0.0545824 -0.026016569
000020 a6 74 2b bd 51 1f 85 3d fc b0 20 bd 0c 6c 94 bd
       -0.04185929 0.06500114 -0.039231285 -0.07247171
000030 8e a1 5b bd 5c 09 71 bc ed 01 38 bd 33 76 54 3d
       -0.053620867 -0.014711704 -0.04492371 0.051870536
000040 95 9a 30 bd 50 f4 9e bd 80 ba 1a 3d ed ef 80 3d
       -0.04311617 -0.07761443 0.037775517 0.06295762
000050 88 a8 89 3d c2 ce 4e bc d5 71 85 3d 72 3f 2d bd
       0.06721598 -0.012622537 0.06515852 -0.042296834
000060 01 25 70 3d 34 7b 3c bd fa 4f 56 bd 96 77 0a bd
       0.05862904 -0.046015933 -0.052322365 -0.033805452
000070 a5 a5 1e bc c8 6f 5e bd fa 8f b3 bd 4d 41 89 bc
       -0.009683047 -0.05430582 -0.08767696 -0.01675477
000080 04 96 5d 3d ed b7 38 3d 3f cb 88 bc 20 cd 2e 3d
       0.054098144 0.04509728 -0.016698478 0.04267609
000090 3b 7d 33 3d 7b 95 03 3c fc ce 9d 3d 8c 84 8e 3d
       0.0438206 0.008031244 0.07705495 0.06958875
0000a0 21 3c 5a 3d 7d 4c 8b bc 7e a6 42 bd 07 e1 14 bd
       0.05328 -0.017004246 -0.04752206 -0.036347415
0000b0 37 67 2e bd 1e 69 3b 3d 12 3c 8b 3d fd 03 95 3d
       -0.042578902 0.045754544 0.06798567 0.07276151
0000c0 aa fc 17 bd b7 90 6d 3d 1d 08 20 3d 24 b9 75 3d
       -0.037106194 0.05799934 0.039070237 0.059991017
0000d0 18 d2 dc 3c 48 6e 09 3d 01 80 5e 3d b2 1b 78 3d
       0.02695565 0.033552438 0.054321293 0.060573287
0000e0 38 d2 7e 3d 03 51 ea bd 56 27 4e 3d 6c 28 37 3d
       0.0622122 -0.11441233 0.050330482 0.044716284
0000f0 d3 ee 00 bc 12 1c 02 bd 0f 03 80 3d e6 27 fc bd
       -0.00786944 -0.03176505 0.062505834 -0.123122975
000100 e8 8f 70 3d 08 d3 69 3d 1f 0d 93 3d 26 0e 02 3c
       0.05873099 0.05708602 0.07180237 0.007937944
000110 c0 2c 78 3d 6e 69 33 bd 37 a0 e2 bc 3c d6 6e 3d
       0.060589552 -0.043801717 -0.027664287 0.05830978
000120 56 c0 58 3d 44 4f bb bd bc ed 91 3d 74 cf 0c bd
       0.0529178 -0.09145978 0.07125422 -0.03437753
000130 9d 10 67 bd 48 9c 54 3d d2 da 15 3d 56 92 39 bc
       -0.056412328 0.051906854 0.036585636 -0.011326393
000140 99 4a 3f bd d1 e3 71 3d 46 85 6c bd 29 70 30 3d
       -0.046702 0.059055153 -0.057744287 0.043075714
000150 fb 38 13 bd f2 c6 74 3d 94 12 7f 3d 59 72 6a 3d
       -0.035943013 0.05976004 0.062273577 0.057237957
000160 54 8b cc bc 47 76 0e bd c4 f4 7a 3d 93 cd 85 3d
       -0.02496878 -0.034780767 0.061268583 0.06533351
000170 a5 cf 75 3d cc fb fe bc 7b 99 bd 3d 85 36 f6 bc
       0.06001248 -0.031125925 0.0925779 -0.030055294
000180 3d 1b c6 bc a3 19 57 3d 7f a4 21 bd ec b4 e3 bc
       -0.02418291 0.052514683 -0.039463516 -0.027796231
000190 32 78 41 3d 00 25 9f 3d 76 f2 46 3d 65 eb 2f 3d
       0.047233768 0.07770729 0.048571073 0.0429491
0001a0 12 06 ca bb c6 75 ff bc 77 50 58 bd 2f bb 64 3d
       -0.0061652744 -0.031184088 -0.052811112 0.055842575
0001b0 f7 e8 ab 3d 2d 61 51 3d 94 b0 93 3d 5a 5c f9 bb
       0.08394044 0.051118065 0.07211414 -0.007609886
0001c0 cd e0 53 bd 5f 7a 09 bd 2d a8 52 bd d7 13 1a bc
       -0.05172806 -0.033563968 -0.051429916 -0.009404144
0001d0 9b 52 c4 bd 4e 28 7c 3d 2d ef b8 bc 2a 07 67 3d
       -0.09586068 0.061561875 -0.022574985 0.056403317
0001e0 b1 18 2a bd f8 02 29 bd cc 80 51 3d 84 48 8d 3d
       -0.041527454 -0.041262597 0.05114822 0.06898597
0001f0 3f 61 a2 3d dd 37 93 bc 2f 42 70 3d ca 60 a7 bc
       0.079287045 -0.017970974 0.058656868 -0.020431895
000200 6b dc 74 bd 7e 42 1c 3d 93 42 63 bd 05 c7 19 3b
       -0.05978052 0.03814935 -0.055483412 0.0023464572
000210 6e fb 84 bd f6 bf 84 3d 53 49 6e bd 27 b1 97 3c
       -0.06493269 0.06481926 -0.058175396 0.01851709
000220 57 1b df 3c c3 67 60 bd f2 98 dc 3c 27 71 97 3d
       0.027234716 -0.054786455 0.026928399 0.07394629
000230 f2 5a 1e 3d a0 1f 3f 3d 56 61 da 3c 11 b2 86 bd
       0.03866095 0.04666102 0.026657742 -0.06576932
000240 3f 53 24 3d 2a 8a b8 3d 2a f7 39 bd 81 50 82 bd
       0.040118452 0.09010728 -0.04540173 -0.06363011
000250 e8 ca 71 bd 05 4d 06 3d 3d aa 86 bd 84 fb 4f 3d
       -0.059031397 0.032788295 -0.06575439 0.050776973
000260 6b 13 2f bd bc 55 49 3d 53 87 50 3d 87 5e f2 3c
       -0.042743128 0.04915403 0.050910305 0.02958609
000270 46 9e 25 3c 0b 66 54 3d ee 83 ce 3d 29 6a 87 3c
       0.010108536 0.05185513 0.10083757 0.016530113
000280 9d f8 80 bd 08 b3 49 bd 00 15 21 3d e8 09 54 bd
       -0.06297419 -0.049243003 0.039326668 -0.05176726
000290 67 f0 50 bd f5 4f 4e bc 01 94 86 bd cb 78 79 bd
       -0.051010516 -0.012592305 -0.06571198 -0.060906213
0002a0 eb 5a 57 bd 87 06 30 3d 88 e1 80 3d 6e 9f 28 3d
       -0.05257694 0.042974975 0.06293017 0.04116767
0002b0 74 01 0e 3d 15 3b 58 bd c6 6f 7b bd 27 f3 75 bd
       0.034669355 -0.05279072 -0.061385892 -0.06004634
0002c0 19 62 00 3d 1f 6b 7c bd d7 07 50 bd 37 f9 80 bd
       0.031343553 -0.061625596 -0.050788727 -0.06297534
0002d0 5d 44 9b bc cd fc 08 bd 29 b7 7f bd ac 37 8a bd
       -0.018953497 -0.033444215 -0.062430535 -0.067489
0002e0 b3 50 7e bd c8 ac d9 3d 61 a9 89 bd e7 70 47 bd
       -0.06208868 0.106286585 -0.067217596 -0.048691656
0002f0 b2 6c 00 3d bb c9 e1 3c bb 3a 77 bd 56 f8 e7 3d
       0.03135366 0.027562013 -0.060358744 0.11326663
000300 17 f9 79 bd e6 d9 71 bd 1b 80 84 bd 3a 65 37 bc
       -0.061028566 -0.059045695 -0.06469747 -0.011193568
000310 0b 06 aa bd de 68 56 3d ff 13 bf 3c ea 84 4f bd
       -0.08301934 0.052346103 0.023324965 -0.050663866
000320 e9 a3 2e bd c6 0b a3 3d 1b 7d 72 bd 43 05 27 3d
       -0.042636786 0.0796123 -0.05920134 0.040776502
000330 f9 e8 41 3d 69 69 57 bd ca 6a a1 bc ab 33 13 3b
       0.04734132 -0.05259076 -0.019704241 0.0022461216
000340 53 e0 1a 3d 18 c3 6e bd de eb 73 3d 12 d6 2e bd
       0.03781159 -0.058291525 0.059551112 -0.042684622
000350 ef 39 5b 3d fa 96 89 bd b8 eb 70 bd 39 d1 5a bd
       0.053522047 -0.067182496 -0.05881855 -0.053422187
000360 bd a2 02 3d a4 7a f6 3c 1e 3c 34 bd 77 13 7e bd
       0.03189348 0.030087776 -0.044002645 -0.062030282
000370 1a 58 45 bd 4a d5 ba 3c b9 c0 c5 bd 3c 8c 2f 3d
       -0.048179723 0.022806782 -0.096558996 0.042858347
000380 a6 ca 56 3c 6a e0 8d bd 78 58 64 3d 21 98 d1 3c
       0.013109839 -0.06927569 0.055748433 0.025585236
000390 7a 99 3e bd 2f cf a7 bd 65 6b 35 bd a8 d4 52 bd
       -0.046533085 -0.08193814 -0.044291873 -0.051472336
0003a0 3b d6 5b bb 4b f1 14 3d 73 fc 32 3d ec 3a 57 bd
       -0.003354444 0.036362927 0.043697786 -0.052546427
0003b0 88 00 96 bd 95 f9 89 bd 51 7e 65 bd 77 95 e2 3c
       -0.0732432 -0.06737057 -0.056028668 0.027659161
0003c0 a6 72 66 3d 0d a3 4d 3d c9 0f 17 3d 66 95 db 3c
       0.05626168 0.050204325 0.03688029 0.026804637
0003d0 17 2d c6 3d 35 7c 85 bd 5d d5 d5 3c c7 a8 85 bd
       0.09676569 -0.06517831 0.026102716 -0.06526332
0003e0 7d d8 63 3d c8 8a 10 3d 14 08 48 bd a9 b4 54 bd
       0.05562638 0.035288602 -0.04883583 -0.051930103
0003f0 8b 35 a8 bd d4 fc af 3c 8f 15 74 bd 95 f5 ad 3c
       -0.082133375 0.021482863 -0.059590872 0.021235267

action_model._discrete_distribution.branches.0.bias f4 [2]
000000 ae ea a4 3b a4 ea a4 bb
       0.005032859 -0.005032854
